mujoco_playground/_src/manipulation/franka_emika_panda/onnx/panda_pick_policy.onnx (onnx, 25124 bytes, 12 tensors)

obs_mean f4 [53]
0	0xbdfe148a	-0.12406261
1	0x3f3193d3	0.69366187
2	0x3e16ebc1	0.1473837
3	0xbfb45b5d	-1.4090382
4	0xbc69f42f	-0.014279409
5	0x400958ec	2.1460524
6	0xbf47c04f	-0.78027815
7	0x3cbaafb0	0.022788852
8	0x3cbc350f	0.022974519
9	0xbd84db79	-0.064871736
10	0x3e0dffa6	0.13867053
11	0x3da19651	0.07889999
12	0x3d74d28e	0.059771113
13	0xbc690f57	-0.014224849
14	0x3d40c424	0.047062054
15	0x3b89daf5	0.00420701
16	0xbbdb5c77	-0.0066943723
17	0xbbbe99fb	-0.0058166957
18	0x3f30bc3e	0.69037235
19	0xb8400c51	-4.5787838e-05
20	0x3e526b9d	0.20548864
21	0x3f71d5e4	0.94466996
22	0xbc899792	-0.016795907
23	0x3d5235e3	0.05132092
24	0x3d5d9b38	0.054103106
25	0x3d3d70c5	0.046250124
26	0xbf6e5ca6	-0.9311012
27	0xbb438d40	-0.002983883
28	0x3f6cb17b	0.92458314
29	0xbbf45c48	-0.00745729
30	0x3c98ed4c	0.01866784
31	0x3bd39a1e	0.006457581
32	0x3f686541	0.907795
33	0x3c02442e	0.007950826
34	0x3ae5986f	0.0017516742
35	0xbd0228cf	-0.0317772
36	0x3b0e587a	0.0021720217
37	0xbab6742f	-0.0013920123
38	0x3e203c8e	0.156481
39	0x3ce3ec07	0.027822508
40	0xbbbc59c8	-0.0057480074
41	0x3ca7de10	0.02049163
42	0x3b955853	0.004557648
43	0x3c0fff8c	0.0087889545
44	0x3bd88752	0.0066079283
45	0xbb278638	-0.0025562178
46	0xbc2494aa	-0.01004521
47	0x3bde4a53	0.0067837625
48	0x3c9bf51e	0.01903778
49	0x3b621a37	0.0034500489
50	0xbccaf710	-0.024776012
51	0x393e70d8	0.0001816185
52	0xbc47563c	-0.012166556

obs_std f4 [53]
0	0x3e442245	0.19153698
1	0x3ead39e9	0.33833244
2	0x3e37e545	0.17958553
3	0x3ed2ec07	0.411957
4	0x3e696322	0.22791722
5	0x3eb33ab7	0.35005733
6	0x3e815f3a	0.25267965
7	0x3c0e2878	0.008676641
8	0x3c0c7dc7	0.0085749095
9	0x3eaf1ee8	0.34203267
10	0x3f3df839	0.7420688
11	0x3eb2010e	0.3476643
12	0x3f0f5a2a	0.55996954
13	0x3f5217dc	0.82067657
14	0x3f5cdde1	0.8627606
15	0x3f62191d	0.8831957
16	0x3d91d089	0.07119853
17	0x3d8f4ad8	0.06996697
18	0x3df1717e	0.11789225
19	0x3de2c39e	0.11072467
20	0x3e0f86ad	0.14016218
21	0x3de55622	0.11198069
22	0x3e5f793c	0.21823591
23	0x3e44f95b	0.19235747
24	0x3e4961c8	0.19666207
25	0x3e8568ee	0.26056617
26	0x3df1727f	0.117894165
27	0x3e66c754	0.22536975
28	0x3e5a0ec7	0.212947
29	0x3e506d8d	0.2035429
30	0x3e85852d	0.26078168
31	0x3e5128df	0.20425747
32	0x3e773292	0.24140385
33	0x3d1b624c	0.03793554
34	0x3d0d2176	0.03445574
35	0x3da7d4b5	0.081948675
36	0x3e05cbc5	0.13066013
37	0x3de582c3	0.112065814
38	0x3e16698b	0.14688699
39	0x3e6e1f7e	0.23254201
40	0x3e523259	0.20527019
41	0x3e9db629	0.3080304
42	0x3e50778f	0.20358108
43	0x3e5b6051	0.2142346
44	0x3e77cecc	0.2419998
45	0x3cecba18	0.02889733
46	0x3e13b68d	0.14425106
47	0x3cee8b54	0.029119171
48	0x3d772cc4	0.060345426
49	0x3d533abc	0.051569685
50	0x3e4baf63	0.19891123
51	0x3cf425a7	0.02980311
52	0x3c52bccc	0.0128623955

mlp.0.weight f4 [32, 53]
0	0x3c009f54	0.007850487
1	0xbe0e37c8	-0.13888466
2	0x3e3eea4c	0.18644065
3	0xbdce49d0	-0.10072672
4	0xbd45d04b	-0.048294347
5	0xbd4ea2f6	-0.05044838
6	0x3db1ed41	0.08687831
7	0x3d98ccc1	0.07460929
8	0x3e2b4c95	0.16728432
9	0xbdcd346b	-0.100197636
10	0xbdd1a588	-0.10236651
11	0xbe170f4a	-0.14751926
12	0x3e9c1309	0.30483273
13	0x3d954bbe	0.07289837
14	0x3e8c2f7d	0.2737998
15	0x3cdbad2a	0.02681597
16	0xbc628503	-0.013825658
17	0xbc143d73	-0.009047854
18	0xbcfc3544	-0.030787118
19	0xbe437aa9	-0.1908976
20	0x3e42d4e9	0.19026531
21	0xbe1fca52	-0.15604523
22	0xbeb87410	-0.3602605
23	0xbce2db64	-0.027692504
24	0x3de4562e	0.1114925
25	0x3d9eb6d8	0.077497184
26	0xbe2f5a7a	-0.17124358
27	0x3eac1fb6	0.33617944
28	0x3da7f7dc	0.08201572
29	0x3bda3b4e	0.0066599017
30	0x3e4f07cf	0.20217822
31	0xbc00818d	-0.007843387
32	0xbd74dfc7	-0.059783723
33	0xbf13ae1c	-0.57687545
34	0x3f025481	0.5091019
35	0xbf476dc0	-0.7790184
36	0x3ddce365	0.107855596
37	0xbd8d9c2f	-0.06914555
38	0xbd03fa34	-0.032221034
39	0x3d83066a	0.06397708
40	0xbd534d8e	-0.051587634
41	0x3d540096	0.05175837
42	0x3dc29823	0.09501674
43	0xbdfa7688	-0.12229639
44	0xbe51e161	-0.20496131
45	0xbe50d73b	-0.20394604
46	0xbdfcc056	-0.12341373
47	0xbd1ee4fb	-0.03879259
48	0x3eecd653	0.46257266
49	0xbd84b84c	-0.06480464
50	0x3f2c9ced	0.6742695
51	0x3ded69da	0.11592455
52	0x3dff0a12	0.12453093
53	0xbc7db8ae	-0.015485926
54	0xbdac6184	-0.08417037
55	0x3d669dcc	0.05630283
56	0xbd77e2bc	-0.060518965
57	0xbdb96728	-0.090528786
58	0xbc5a8e5b	-0.013339604
59	0x3cd5bfc6	0.026092421
60	0xbf085f1e	-0.5327014
61	0xbf5581b0	-0.8340101
62	0x3c75fe60	0.015014261
63	0xbeff0876	-0.49811143
64	0x3d6858fc	0.056725487
65	0x3d7e041e	0.062015645
66	0x3c984f78	0.018592581
67	0x3dca52a1	0.098790415
68	0x3c251371	0.010075436
69	0xbd7a89a6	-0.061166428
70	0x3c2f9978	0.010717742
71	0x3da94c88	0.0826655
72	0x3b883bec	0.004157534
73	0x3dbe0631	0.09278525
74	0xbdc0de6e	-0.09417425
75	0xbd760b7e	-0.060069554
76	0xbd028059	-0.031860683
77	0x3cae8b8c	0.021306776
78	0x3e578711	0.21047617
79	0xbd4c049f	-0.049809095
80	0x3daac99d	0.08339236
81	0x3dc2123c	0.09476134
82	0xbd2c2d93	-0.04203565
83	0xbe3bc0d7	-0.18335281
84	0x3d30c902	0.043160446
85	0x3d7ab967	0.06121197
86	0x3dde7a6f	0.10863196
87	0x3de37338	0.111059606
88	0x3ebab0b4	0.3646294
89	0x3f0a66fb	0.54063386
90	0xbf88ce68	-1.068799
91	0xbf2167ee	-0.6304921
92	0x3e4203fa	0.1894683
93	0xbde524ea	-0.111886814
94	0x3e9e09fc	0.30866992
95	0xbcdf949f	-0.027292548
96	0xbc4f6061	-0.012657256
97	0x3b130f63	0.002243959
98	0x3d3e258d	0.04642253
99	0xbf0b3616	-0.54379404
100	0x3d440aca	0.04786185
101	0x3e350e1d	0.17681165
102	0x3d998826	0.074966714
103	0x3e2fc78d	0.17165966
104	0x3ce2fdd4	0.027708925
105	0xbeee440e	-0.46536297
106	0x3e01be71	0.12670304
107	0x3ee9babb	0.45650277
108	0x3dcd04f5	0.10010711
109	0xbe2dd2ce	-0.16974947
110	0xbddc822a	-0.10767014
111	0x3d61470a	0.05499939
112	0xbe87a3e8	-0.26492238
113	0xbe2b2b97	-0.16715847
114	0xbdc6c889	-0.09706218
115	0x3d90037d	0.07031915
116	0x3bc61eac	0.006046137
117	0x3e1bb33f	0.15205096
118	0xbc01fd67	-0.007933951
119	0xbb2641b6	-0.0025368757
120	0x3d9923c0	0.07477522
121	0xbadfef1b	-0.0017084809
122	0x3d30795c	0.043084487
123	0xbddf0a50	-0.10890639
124	0x3bb86c29	0.005628128
125	0xbd244067	-0.04010048
126	0xbf4b29b0	-0.79360485
127	0x3d8a539d	0.06754229
128	0x3e0708f0	0.13187003
129	0xbdec07ed	-0.11524949
130	0x3d5267d5	0.051368553
131	0xbe81fab0	-0.25386572
132	0x3d149e05	0.03628351
133	0xbe9813ed	-0.29702702
134	0x3d6bcd94	0.0575691
135	0xbccc7f20	-0.024962962
136	0x3ddc108a	0.10745342
137	0xbda727e1	-0.08161903
138	0x3dac473b	0.08412024
139	0xbe47083a	-0.19436732
140	0xbfadf121	-1.3589212
141	0x3f79c0ec	0.9756
142	0xbb521238	-0.0032054316
143	0xbc9b7ca4	-0.018980332
144	0x3ea88b11	0.329186
145	0xbd064380	-0.032779217
146	0x3c52ea51	0.012873248
147	0x3e081d4e	0.13292429
148	0xbe3873bb	-0.18012898
149	0x3d101422	0.03517545
150	0xbdcdb421	-0.100441225
151	0x3ccccb5c	0.024999313
152	0x3f443dc9	0.76656777
153	0x3d8f65ee	0.070018634
154	0xbe16e728	-0.14736617
155	0xbe2a423b	-0.16626827
156	0xbeddb45f	-0.43301675
157	0xbd1fd0d3	-0.03901751
158	0x3d2dfde0	0.042478442
159	0x3e3e8913	0.18606977
160	0x3d571f6d	0.052520204
161	0x3d824378	0.06360525
162	0x3de57bb6	0.112052366
163	0x3e14bb73	0.14524631
164	0x3ebb1cc0	0.36545372
165	0xbcedd3bd	-0.029031629
166	0xbd68ef9a	-0.056869127
167	0x3e1278ff	0.14303969
168	0xbdcb9175	-0.09939853
169	0xbe340a93	-0.17582159
170	0x3e2aafdf	0.16668652
171	0x3d555cab	0.05209033
172	0xbda4ab33	-0.08040466
173	0xbdb38f74	-0.08767596
174	0x3cb63375	0.022241333
175	0x3db17640	0.086651325
176	0xbdd34069	-0.1031502
177	0x3de1da96	0.1102802
178	0x3c6c5cbe	0.014426408
179	0xbf079ee3	-0.52976817
180	0x3e4fc6b0	0.20290637
181	0xbe0ad722	-0.13558629
182	0xbd9c4691	-0.07630647
183	0x3db156df	0.086591475
184	0xbe5615bb	-0.20906727
185	0xbde624a7	-0.1123746
186	0x3e77125b	0.24128096
187	0x3defde74	0.117123514
188	0xbcf7a170	-0.030228347
189	0xbe66f2c0	-0.2255354
190	0x3da0655b	0.07831832
191	0xbe1e5dc3	-0.15465455
192	0xbf6216c4	-0.8831599
193	0xbf4d476e	-0.8018712
194	0x3f1c7f37	0.61131614
195	0x3d07f1a9	0.03318945
196	0x3d4b0273	0.049562883
197	0x3e9812f3	0.29701957
198	0x3d865ff3	0.065612696
199	0xbde8d8dd	-0.113694884
200	0xbd9abda2	-0.07555701
201	0xbccb8aa1	-0.024846377
202	0xbe4157d3	-0.18881159
203	0x3df7448f	0.120736234
204	0xbafefe1e	-0.0019454395
205	0xbe6f9869	-0.23397984
206	0xbe386e0f	-0.18010734
207	0xbe0994e0	-0.13435698
208	0x3e5d2fa3	0.21600203
209	0x3ead19af	0.33808658
210	0xbc2e85e1	-0.010652036
211	0x3e7ab154	0.24481708
212	0xbdd28510	-0.10279286
213	0xbb6eb98a	-0.0036426508
214	0xbdfbbcae	-0.12291847
215	0xbe8e3a70	-0.2777896
216	0x3e01e326	0.12684307
217	0x3db7f0dd	0.08981488
218	0xbe2bd003	-0.16778569
219	0x3e7e8155	0.24854024
220	0x3e7e3eb1	0.24828602
221	0x3bccaba9	0.0062460494
222	0xbe83005a	-0.25586206
223	0xbae5ff2e	-0.0017547363
224	0xbd4c23fc	-0.049839005
225	0x3d9feeba	0.07809205
226	0x3d01d8e9	0.031701002
227	0xbd9c82f5	-0.076421656
228	0x3da29f41	0.079405315
229	0xbcecc1ac	-0.028900944
230	0x3e763042	0.24041846
231	0x3d4f9e6f	0.050688203
232	0x3dca0fe2	0.09866311
233	0x3cf2a165	0.029617975
234	0xbd7613d6	-0.06007751
235	0x3dd808b4	0.10548535
236	0x3d9b6400	0.07587433
237	0x3e1105d6	0.14162382
238	0x3ce1e4e9	0.027574973
239	0x3db90682	0.090344444
240	0x3c938f9a	0.01801281
241	0x3e98bee2	0.29833132
242	0xbd6f484b	-0.058418553
243	0xbd321e55	-0.043485958
244	0x3bb56d46	0.005536708
245	0x3f1e4b47	0.61833614
246	0x3ae59c42	0.0017517882
247	0x3e867b22	0.26265818
248	0x3e4c7340	0.1996584
249	0x3d9ac2c9	0.075566836
250	0x3e914a79	0.2837713
251	0xbdc11aa6	-0.09428911
252	0xbe5fdb38	-0.21860969
253	0x3db049d5	0.08607832
254	0xbdd73cf5	-0.105096735
255	0x3e02f24a	0.12787738

mlp.0.bias f4 [32]
0	0xbd92c93d	-0.071672894
1	0xbde79f86	-0.113097236
2	0xbe8df66a	-0.27727062
3	0xbe249b0b	-0.16074769
4	0x3e1aeaa8	0.15128577
5	0x3cae20c8	0.021255866
6	0xbda2d353	-0.07950463
7	0xbf1ca8ee	-0.61195266
8	0xbec79179	-0.38978174
9	0xbecc4075	-0.39892927
10	0xbb9c9cc0	-0.0047794282
11	0xbf115f31	-0.56785876
12	0xbd52c8b1	-0.051460925
13	0xbd806d78	-0.062708795
14	0xbe4cc282	-0.19996074
15	0xbe13e157	-0.14441429
16	0xbde498a5	-0.11161927
17	0x3c67440c	0.014115345
18	0x3db0e274	0.086369425
19	0x3dc9cf6d	0.098540165
20	0x3cc62c0b	0.024190923
21	0x3e6f322b	0.23358981
22	0x3d43ac4b	0.047771733
23	0xbdd89817	-0.10575884
24	0x3e32c35a	0.17457333
25	0x3d60f6f5	0.054923017
26	0xbd93b367	-0.07211953
27	0xbdfee858	-0.1244666
28	0x3d54b796	0.051932894
29	0x3dc3de54	0.0956389
30	0x3e95c9c3	0.29255494
31	0x3e58f682	0.21187785

mlp.2.weight f4 [32, 32]
0	0x3e829401	0.25503543
1	0xbe59b066	-0.21258697
2	0xbe59bacf	-0.21262668
3	0x3d735652	0.059408493
4	0x3c3552e5	0.011067127
5	0x3e8d6137	0.27613232
6	0x3ee8ab89	0.4544337
7	0x3e49dc5e	0.1971297
8	0x3d732649	0.059362683
9	0xbefd0223	-0.49415693
10	0x3ee67104	0.450081
11	0x3e759963	0.23984294
12	0xbf0a1768	-0.53941965
13	0xbca41e5d	-0.02003401
14	0x3eb85d3b	0.3600863
15	0xbe645f8b	-0.22302072
16	0xbda37866	-0.079819486
17	0x3d43c0f1	0.047791425
18	0x3d281ab5	0.041041095
19	0x3e00d99b	0.1258301
20	0xbe96b033	-0.29431304
21	0xbdcdf4ed	-0.100564815
22	0xbdeb55a6	-0.114909455
23	0xbcaafd00	-0.020872593
24	0xbd12a888	-0.035805255
25	0x3e1b4e64	0.15166622
26	0xbe9ca702	-0.30596167
27	0xbe1515df	-0.14559124
28	0x3e15b753	0.14620714
29	0x3e4f3632	0.20235518
30	0x3cb21ec5	0.021743188
31	0xbe0a1801	-0.1348572
32	0xbe18d690	-0.14925599
33	0x3e2b38f0	0.16720939
34	0x3e6d2d69	0.23161854
35	0x3d2150a4	0.039383546
36	0x3e5e8699	0.21731032
37	0x3e2e3aeb	0.17014663
38	0xbc271dac	-0.010199945
39	0xbdabf89c	-0.08397028
40	0x3f0d0717	0.55088943
41	0xbe7bbf38	-0.24584663
42	0xbe627976	-0.22116646
43	0xbae3851c	-0.0017358395
44	0xbeb2193d	-0.3478488
45	0x3e2c4ac6	0.16825399
46	0xbe6ece96	-0.23320994
47	0xbe9afacc	-0.30269468
48	0x3eb38d90	0.3506894
49	0x3d7a9f83	0.06118728
50	0xbeb0fc38	-0.34567428
51	0x3efebd7d	0.49753943
52	0x3d1c0656	0.03809198
53	0x3e90c61e	0.2827615
54	0xbdee49fc	-0.11635205
55	0xbdca6d11	-0.09884084
56	0x3db1fcad	0.08690772
57	0xbbb89219	-0.0056326506
58	0x3ea3dea2	0.32005793
59	0xbec5243b	-0.38504204
60	0xbd6a6df6	-0.057233773
61	0x3d9a1ee9	0.07525427
62	0xbe8d8831	-0.27642968
63	0x3d6ebbad	0.05828445
64	0x3e2b682c	0.16738957
65	0x3d5a99e2	0.05336941
66	0xbd49adcf	-0.049238022
67	0x3e479e44	0.19493967
68	0x3ebf6f4a	0.37389594
69	0xbe197586	-0.14986238
70	0xbd48abea	-0.048992075
71	0xbcde4d13	-0.027136361
72	0x3dafbcba	0.085809186
73	0xbe816d62	-0.25278765
74	0x3e785fa4	0.24255234
75	0x3d7f4947	0.062325742
76	0xbdbe1986	-0.09282212
77	0xbf638f89	-0.8889089
78	0xbda43403	-0.08017733
79	0x3db4a2a0	0.08820081
80	0x3d427738	0.047476977
81	0x3e39d8a1	0.18149044
82	0x3c81b516	0.015833419
83	0x3c8f18ae	0.017467823
84	0x3d12e9e0	0.03586757
85	0xbe98faed	-0.2987894
86	0x3e5266e4	0.20547062
87	0xbecf1c9d	-0.40451518
88	0x3b0c1670	0.0021375678
89	0x3e880502	0.2656632
90	0xbdac329f	-0.08408093
91	0x3e102fd6	0.14080748
92	0x3e020af0	0.12699485
93	0xbf0e46d4	-0.55576825
94	0xbe06b786	-0.13155946
95	0x3ec68826	0.38775748
96	0x3e47f35b	0.19526426
97	0xbe90734b	-0.28212962
98	0xbd5bf571	-0.053700868
99	0x3e10542c	0.14094609
100	0xbda83ef4	-0.08215132
101	0x3ec43eaa	0.3832906
102	0xbe27bea3	-0.16381316
103	0x3dabd69d	0.083905436
104	0x3e836a77	0.25667164
105	0xbe0f4d51	-0.13994338
106	0x3eeb7cc7	0.45993635
107	0x3dcce377	0.10004323
108	0xbed3c8fd	-0.4136428
109	0xbdbccb32	-0.09218444
110	0xbe3dc87b	-0.18533508
111	0x3ea22a4a	0.3167289
112	0x3e586b24	0.21134621
113	0x3d0dbc3e	0.03460335
114	0x3d59df33	0.053191375
115	0x3df74d09	0.1207524
116	0xbebe5443	-0.37173662
117	0x3e9dbd25	0.30808368
118	0x3eea536c	0.4576677
119	0xbe9004a1	-0.28128532
120	0x3e118044	0.14209086
121	0xbf24b20e	-0.6433419
122	0x3dee5fd7	0.11639374
123	0x3e4fa0a1	0.20276119
124	0xbeb09fc0	-0.3449688
125	0x3e02f621	0.12789203
126	0x3d635002	0.055496223
127	0xbd53f1ea	-0.05174438
128	0xbeaff58e	-0.3436703
129	0xbe59a6ad	-0.21254988
130	0xbe504a45	-0.20340832
131	0xbe863e9b	-0.2621964
132	0x3d4ef5a2	0.050527222
133	0x3ebf0aae	0.37312835
134	0x3e0033d8	0.12519777
135	0x3e14c4ee	0.14528248
136	0x3bed6720	0.0072449595
137	0x3d78006f	0.06054729
138	0xbec9f23b	-0.3944262
139	0x3e71bcc6	0.23607168
140	0x3dc40e0f	0.09572994
141	0x3ee1bfdc	0.4409169
142	0xbdcfcf6f	-0.10146987
143	0xbee167a5	-0.44024387
144	0x3c1943a0	0.009354502
145	0xbd65071f	-0.055914994
146	0xbd6b1e3f	-0.05740189
147	0xbf27639d	-0.6538637
148	0x3da3c831	0.07997168
149	0x3c76f72b	0.015073578
150	0xbe6577b3	-0.22408943
151	0x3eac0495	0.33597246
152	0x3e926b55	0.28597513
153	0x3e7501a7	0.23926412
154	0xbe29b1ec	-0.16571778
155	0xbd9be7d5	-0.07612578
156	0xbec8123a	-0.39076406
157	0x3d5ee379	0.054416154
158	0xbe141a3e	-0.14463136
159	0xbf01d102	-0.50709546
160	0x3d36d929	0.044640694
161	0x3dc77e62	0.097409025
162	0x3b79ddf0	0.003812667
163	0xbe9f4f85	-0.31115356
164	0xbe82e52a	-0.25565463
165	0x3d82dd59	0.06389875
166	0xbf32b677	-0.6980967
167	0x3e7b21a3	0.2452455
168	0xbdf74298	-0.120732486
169	0xbe8a4f72	-0.27013737
170	0xbec0c626	-0.37651175
171	0xbeb2523a	-0.3482836
172	0x3e598c1e	0.21244857
173	0xbf0d4203	-0.5517885
174	0xbe0eb37b	-0.13935654
175	0xbeac5128	-0.33655667
176	0xbeaccb6f	-0.33748958
177	0xbcb913ab	-0.022592386
178	0xbe225072	-0.15851
179	0xbd3ad330	-0.04561156
180	0x3d48ef45	0.04905631
181	0x3f140e38	0.57834196
182	0x3e8f7802	0.28021246
183	0x3e79c52e	0.24391624
184	0xbeeac2f6	-0.45851868
185	0xbd1d56eb	-0.03841297
186	0xbba4e428	-0.005032081
187	0xbe2bcf2b	-0.16778247
188	0x3dd35e29	0.10320694
189	0x3dd09176	0.101839945
190	0x3e49b196	0.1969665
191	0x3eed067d	0.46294013
192	0x3e148126	0.14502391
193	0x3eb28ded	0.34873906
194	0x3e6e0343	0.23243432
195	0x3eaf2668	0.3420899
196	0x3e3ff3ae	0.187453
197	0xbdf0b449	-0.11753137
198	0x3e5a9a71	0.21347977
199	0x3dcec55a	0.100962356
200	0xbdec54dc	-0.11539623
201	0xbe8a2d22	-0.2698756
202	0x3e689b45	0.2271548
203	0xbedf6e11	-0.43638662
204	0xbe054fd3	-0.13018732
205	0x3c9e25b3	0.019305086
206	0x3e87baed	0.265098
207	0xbf1209ed	-0.57046396
208	0xbe08362c	-0.13301915
209	0x3daa625c	0.08319542
210	0x39bd76e3	0.00036137467
211	0xbeff4afd	-0.498619
212	0x3d4eb4e0	0.050465465
213	0x3e93cb93	0.28866252
214	0xbed8b848	-0.42328095
215	0xbed8f6f7	-0.4237592
216	0xbec8b9a4	-0.39204133
217	0x3e58f29e	0.21186301
218	0xbc871f2b	-0.016494354
219	0xbd84e93a	-0.06489797
220	0x3d747c58	0.059688896
221	0xbee90dac	-0.45518243
222	0xbe4243e1	-0.18971206
223	0xbcb22254	-0.021744885
224	0xbd2deb44	-0.042460695
225	0xbe33d2c0	-0.17560863
226	0xbe2c5a8a	-0.16831413
227	0xbe4eba42	-0.20188239
228	0x3e82c6a2	0.2554217
229	0x3da32579	0.07966132
230	0xbd704940	-0.058663607
231	0xbed1a3b0	-0.40945196
232	0x3e135580	0.14388084
233	0xbeaaad9a	-0.33335572
234	0xbe20364c	-0.15645713
235	0x3dd84488	0.10559946
236	0xbe6f09f3	-0.23343639
237	0xbea17bbc	-0.31539714
238	0xbaae25f5	-0.0013286459
239	0xbeeea4c8	-0.46610093
240	0xbe1fde0b	-0.15612046
241	0x3d03566a	0.032064833
242	0x3e2c5b0e	0.1683161
243	0x3bda4560	0.006661102
244	0xbe459cd1	-0.19298102
245	0xbe1ec139	-0.15503396
246	0xbea08fb6	-0.31359643
247	0x3e88a5e7	0.26689073
248	0x3e0bd854	0.13656741
249	0xbe3572f0	-0.17719626
250	0xbed2ae73	-0.4114872
251	0x3ec68582	0.38773733
252	0xbdb5b301	-0.08872033
253	0x3ed64889	0.41852215
254	0x3e17d48e	0.14827177
255	0x3d91e710	0.0712415

mlp.2.bias f4 [32]
0	0x3d370f3b	0.04469226
1	0xbc8eb996	-0.017422479
2	0x3e525cf7	0.20543276
3	0xbe6655e3	-0.224937
4	0x3ce86b89	0.02837159
5	0x3e91db8b	0.2848781
6	0xbd2b743e	-0.041858904
7	0x3e9e23bb	0.30886635
8	0x3dbb8635	0.09156457
9	0xbddef83b	-0.1088719
10	0x3e5e71f1	0.21723153
11	0xbecbcb5d	-0.3980359
12	0xbe030d54	-0.12798053
13	0xbe34f83e	-0.17672822
14	0xbde331a1	-0.1109345
15	0x3d85d554	0.0653483
16	0xbdea4be4	-0.11440256
17	0xbebd5f17	-0.3698661
18	0xbd126b6b	-0.035746973
19	0xbe595d52	-0.21227005
20	0x3e3ba365	0.18324049
21	0x3c4a06cd	0.012330723
22	0xbcf7855a	-0.030214954
23	0x3e294f4c	0.16534156
24	0x3c80860c	0.015688919
25	0x3b2bf55c	0.0026238775
26	0x3dedef75	0.116179384
27	0x3e07f558	0.13277185
28	0xbd93c787	-0.07215791
29	0xbe2ac774	-0.16677648
30	0x3c2e5db0	0.010642454
31	0x3e416d18	0.18889272

mlp.4.weight f4 [32, 32]
0	0xbe858fc9	-0.26086262
1	0x3e174f9b	0.14776461
2	0x3e89450f	0.268105
3	0x3e1f0882	0.15530589
4	0xbea4741e	-0.3211984
5	0x3e1a6e88	0.15081227
6	0x3e9628cf	0.2932801
7	0xbe090d33	-0.13383941
8	0x3e54bcab	0.20775096
9	0x3e4b40a0	0.19848871
10	0xbf2176e3	-0.6307203
11	0xbea2188a	-0.31659347
12	0x3e32e6e4	0.1747089
13	0x3d257338	0.040393084
14	0x3e0e918f	0.13922714
15	0xbf1f68e9	-0.62269455
16	0xbe54d0e3	-0.20782809
17	0x3d494974	0.049142316
18	0xbd92be78	-0.07165235
19	0xbe95dbe8	-0.29269338
20	0x3e8ad5b3	0.27116165
21	0xbe113edc	-0.14184135
22	0xbeb9c0de	-0.36279958
23	0x3e807479	0.25088862
24	0xbded43e3	-0.11585214
25	0xbe81b1e3	-0.2533103
26	0xbd61bd35	-0.055112083
27	0xbb910877	-0.004426058
28	0xbea87bbf	-0.3290691
29	0x3db6dde6	0.089290425
30	0xbd9b3e0e	-0.07580195
31	0x3e0b46df	0.13601254
32	0xbcce90e1	-0.025215568
33	0xbd50dab7	-0.050989833
34	0x3d454753	0.048163723
35	0x3e0f38d8	0.13986528
36	0xbde9cc1e	-0.114158854
37	0x3db4c187	0.08825975
38	0xbdacbd26	-0.08434515
39	0xbe99a97e	-0.30012125
40	0xbed57b28	-0.41695523
41	0xbe470f19	-0.19439353
42	0xbe8c199d	-0.2736329
43	0x3dc18c4b	0.09450587
44	0x3ee79bbc	0.45236003
45	0x3d735167	0.059403803
46	0x3db32563	0.08747365
47	0x3dc3f704	0.09568599
48	0xbd7ce8ea	-0.06174556
49	0x3e36109b	0.17779772
50	0x3db27f4e	0.08715688
51	0x3e895310	0.26821184
52	0xbf1931df	-0.5984172
53	0x3eb7437e	0.3579368
54	0x3e4e81fd	0.20166774
55	0x3ef4ca28	0.47810483
56	0x3e1798cd	0.14804383
57	0xbd969f34	-0.07354584
58	0x3da27edb	0.07934352
59	0xbdad6037	-0.08465617
60	0xbe863c65	-0.26217952
61	0x3e5f63e8	0.21815455
62	0x3de10090	0.109864354
63	0x3e70b13e	0.23505113
64	0xbe4409bc	-0.19144338
65	0x3ea6274f	0.32451865
66	0xbc226a63	-0.00991306
67	0xbd90d32d	-0.070715286
68	0xbec4fc83	-0.384739
69	0xbdb2bcf3	-0.087274455
70	0xbf1cae9e	-0.61203945
71	0x3e5dc431	0.21656872
72	0xbdcc400f	-0.09973156
73	0xbed5d0f7	-0.4176099
74	0x3da01b93	0.07817759
75	0x3e8f38a1	0.27972892
76	0xbb97a504	-0.0046278257
77	0x3f03850b	0.5137488
78	0xbd48ac1c	-0.04899226
79	0xbedaf6a3	-0.42766294
80	0x3dd5ba5f	0.10435938
81	0xbdd1db48	-0.10246903
82	0xbeb49164	-0.35267174
83	0x3e8df599	0.2772644
84	0x3ed075bc	0.40714824
85	0x3df25a81	0.118336685
86	0xbebe9836	-0.37225503
87	0x3dfc760c	0.12327203
88	0x3eb445b9	0.35209444
89	0x3db77ceb	0.08959373
90	0xbeff87e2	-0.49908358
91	0xbefa585c	-0.48895538
92	0x3c8dca32	0.017308328
93	0x3f22356d	0.6336277
94	0x3cc7e86b	0.024402818
95	0x3e8c77fa	0.27435285
96	0x3e56b91b	0.2096905
97	0xbe4ea5f9	-0.20180501
98	0x3de96bcf	0.11397516
99	0xbc990970	-0.018681258
100	0x3d223fe2	0.039611705
101	0xbeac42d7	-0.33644745
102	0xbd3c17c2	-0.045921095
103	0x3dcbc122	0.099489465
104	0x3f0f69dd	0.5602091
105	0x3e023cdf	0.12718533
106	0xbe47675d	-0.19473024
107	0x3d763c21	0.060115937
108	0x3e593f95	0.21215661
109	0x3ec9b551	0.39396146
110	0xbd1611d2	-0.03663809
111	0xbe83178a	-0.25603896
112	0xbdb6a49f	-0.08918118
113	0x3e9e10a9	0.30872086
114	0xbd971418	-0.073768795
115	0xbddd2b56	-0.10799281
116	0x3ec9fc82	0.3945046
117	0x3e8dfead	0.27733365
118	0x3ddabb14	0.106802136
119	0x3e1f8386	0.15577516
120	0xbe81969f	-0.25310227
121	0x3d4ab6bd	0.04949068
122	0x3d5ea976	0.05436083
123	0xbde48269	-0.11157686
124	0x3ed169a4	0.4090091
125	0xbee2144f	-0.4415612
126	0xbf2280d0	-0.634778
127	0x3ecfe415	0.406037
128	0x3e4de142	0.2010546
129	0xbe8dc6c1	-0.276907
130	0xbed15b1b	-0.4088982
131	0x3e9a1b73	0.30099067
132	0xbee41162	-0.44544512
133	0xbee1062e	-0.43950027
134	0x3dd5875d	0.10426209
135	0x3d34d567	0.04414883
136	0x3ee61315	0.44936433
137	0x3e2ec216	0.17066225
138	0x3de82ffa	0.11337276
139	0xbef8cf39	-0.48595598
140	0x3e910b89	0.28329113
141	0xbdbc4449	-0.09192712
142	0xbf2b4161	-0.66896635
143	0xbec5895e	-0.38581365
144	0xbe0451c0	-0.1292181
145	0xbe18ca9e	-0.14921042
146	0x3dd0cd22	0.10195376
147	0xbea622bf	-0.32448384
148	0x3bce39b7	0.0062935012
149	0xbdfb5183	-0.122714065
150	0xbf1116d0	-0.56675434
151	0x3ec2098d	0.37897912
152	0x3da3934e	0.079870805
153	0xbee77a2c	-0.45210397
154	0xbf09cb61	-0.53825957
155	0x3e527885	0.20553787
156	0xbec767b2	-0.389463
157	0x3f1b60a8	0.6069436
158	0xba143e6e	-0.00056550547
159	0x3e77dbd7	0.24204956
160	0x3ed9b5aa	0.4252141
161	0xbe46f77b	-0.19430344
162	0xbf138c6c	-0.5763614
163	0x3ce01ec3	0.027358418
164	0x3e5b9e26	0.21447048
165	0x3ba14fac	0.0049228277
166	0xbdfb1940	-0.122606754
167	0x3ded85ad	0.11597762
168	0xbeb0c767	-0.34527132
169	0x3e3cf100	0.18451309
170	0xbeefc5a8	-0.46830487
171	0x3e94d3ec	0.29067934
172	0xbdd49cbb	-0.103814565
173	0xbd2fd5d5	-0.042928535
174	0x3e44de38	0.19225395
175	0xbe5a6370	-0.21326995
176	0xbda9edcf	-0.082973115
177	0xbe506bc5	-0.20353611
178	0xbe5ef9dc	-0.21775001
179	0xbe7cd06b	-0.2468888
180	0xbebace2a	-0.36485416
181	0x3ec79eed	0.38988438
182	0xbed62433	-0.41824493
183	0x3e806c4f	0.25082633
184	0xbca3aaf9	-0.019978987
185	0x3e18cbe4	0.14921528
186	0xbee67ef2	-0.45018727
187	0x3de3d0fc	0.11123845
188	0xbee575d7	-0.44816467
189	0x3cfcb5f6	0.030848484
190	0xbd891997	-0.06694334
191	0x3eb54a99	0.35408476
192	0x3ea6c5a0	0.3257265
193	0xbe962f21	-0.29332832
194	0x3e3ed3a0	0.18635416
195	0x3dcbe31f	0.09955429
196	0x3b105e78	0.0022028964
197	0xbf65a8bd	-0.897106
198	0x3c7f986f	0.015600308
199	0xbe2f82d1	-0.17139746
200	0x3e1333cf	0.14375232
201	0xbea3e5e1	-0.3201132
202	0xbbfe33ce	-0.0077576404
203	0x3e42f8c6	0.19040212
204	0xbd727001	-0.059188846
205	0xbf4b6660	-0.79453087
206	0x3e7a4176	0.24439034
207	0x3d10cf56	0.03535398
208	0xbe6d728d	-0.23188229
209	0xbee9b143	-0.45643052
210	0xbe970634	-0.2949692
211	0xbd708b6d	-0.058726717
212	0xbdac1819	-0.08403034
213	0x3e45e8a9	0.19327034
214	0xbe1e22f1	-0.15443017
215	0xbf09e5ee	-0.5386647
216	0xbf1d7a88	-0.6151509
217	0x3cdee717	0.027209802
218	0x3e0d0447	0.13771163
219	0xbe262836	-0.16226277
220	0x3df98cc0	0.12185049
221	0x3e7a12d8	0.24421251
222	0xbe71ee59	-0.23626079
223	0xbf437e69	-0.7636476
224	0x3ee25f98	0.44213557
225	0xba9c9690	-0.0011946727
226	0x3dc8d314	0.09805885
227	0xbedb36bc	-0.42815197
228	0xbe08d543	-0.13362603
229	0xbe199018	-0.14996374
230	0x3ef0941d	0.46988
231	0x3e5340be	0.20630166
232	0x3e530968	0.20609057
233	0x3daeb684	0.08530906
234	0x3e880613	0.26567134
235	0x3deb200e	0.11480723
236	0xbedd2442	-0.43191725
237	0xbe8b17c6	-0.27166575
238	0xbe890f98	-0.2676971
239	0xbee11025	-0.4395763
240	0x3d60b294	0.054857805
241	0xbdcb7634	-0.09934655
242	0xbf0f31ab	-0.5593516
243	0x3e6295a5	0.22127397
244	0x3e9ca855	0.30597177
245	0xbbbda2c2	-0.0057872245
246	0xbe290367	-0.16505204
247	0x3da94421	0.08264948
248	0x3ec40f9e	0.38293165
249	0xbd3a1e29	-0.04543892
250	0x3ed81ca9	0.42209366
251	0x3e27e2c9	0.16395105
252	0xbe915f5b	-0.28393063
253	0x3d6eb2df	0.058276054
254	0x3d0e6042	0.034759767
255	0x3edb0553	0.427775

mlp.4.bias f4 [32]
0	0x3da25bd8	0.07927674
1	0xbe37589d	-0.17904897
2	0xbe81e6c0	-0.2537136
3	0xbe2d7ed7	-0.16942917
4	0x3deaf2f0	0.11472118
5	0x3cb66a0c	0.022267364
6	0xbde8c2c4	-0.113652736
7	0x3dbbfcbd	0.091790654
8	0xbd17e88c	-0.03708701
9	0xbddd4e80	-0.10805988
10	0xbe1f8c69	-0.15580906
11	0x3ddfdc0d	0.10930643
12	0xbb128291	-0.0022355656
13	0x3c9f8974	0.019474722
14	0xbe1e7446	-0.15474042
15	0x3d795ed2	0.060881443
16	0x3d0ddb5b	0.03463302
17	0xbe163398	-0.14668119
18	0xbcd424c4	-0.025896437
19	0x3dd9862d	0.10621295
20	0x3dbb658d	0.09150229
21	0x3d800ceb	0.06252464
22	0x3d07c9da	0.033151485
23	0xbcf7bf0e	-0.03024247
24	0xbe1bc541	-0.15211965
25	0xbd58797e	-0.05285024
26	0x3e85c0fd	0.261238
27	0x3dbe0322	0.09277941
28	0xbdb52d16	-0.0884649
29	0x3df6fcad	0.12059913
30	0x3e5df73e	0.21676347
31	0x3df9e68e	0.12202178

mlp.6.weight f4 [32, 32]
0	0x3e82c93f	0.25544164
1	0xbe82abd1	-0.2552171
2	0xbded5462	-0.1158836
3	0xbefef791	-0.49798253
4	0xbe6a1517	-0.22859608
5	0x3e8c341e	0.27383512
6	0x3c303819	0.010755562
7	0x3e0a9ff3	0.13537578
8	0xbd6fb040	-0.058517694
9	0xbe79637d	-0.24354358
10	0xbf060df1	-0.5236502
11	0xbf2509cd	-0.6446808
12	0xbdd2f10f	-0.102998845
13	0xbdea4753	-0.11439385
14	0x3e0e5129	0.13898148
15	0xbce30ed2	-0.027717028
16	0xbc231154	-0.009952862
17	0x3e75d2be	0.24006173
18	0xbf2ecea6	-0.6828407
19	0xbcd464c9	-0.025926964
20	0x3edafe35	0.4277207
21	0xbda3c4a0	-0.079964876
22	0xbf0f1d9b	-0.5590455
23	0xbd30530d	-0.043047953
24	0xbeee9a39	-0.46602038
25	0x3ddeceb8	0.10879272
26	0x3e48db01	0.19614793
27	0x3e0172ef	0.126415
28	0xbeb10421	-0.34573463
29	0xbe201afa	-0.1563529
30	0x3e07577c	0.13216966
31	0xbe4b1053	-0.19830446
32	0xbdf5d5c9	-0.12003667
33	0xbe865a42	-0.26240736
34	0xbd9a214f	-0.07525884
35	0x3e3c1868	0.18368685
36	0x3eb3a8fd	0.35089865
37	0x3e590cd4	0.211963
38	0x3eb4e148	0.35328126
39	0x3c262537	0.010140709
40	0xbe84e126	-0.25953025
41	0xbba056ba	-0.004893151
42	0x3e072a85	0.13199814
43	0x3e8568f3	0.26056632
44	0xbf03a8ec	-0.5142963
45	0xbed826d9	-0.42217138
46	0xbe0c211f	-0.1368451
47	0xbe10f500	-0.1415596
48	0xbfb78077	-1.4336079
49	0xbe4933ba	-0.19648638
50	0x3e45b969	0.1930901
51	0xbdad2b17	-0.08455484
52	0xbeb7baa5	-0.35884586
53	0x3e5d7f2d	0.21630545
54	0xbdf4b3aa	-0.11948331
55	0xbecc89eb	-0.39948973
56	0xbe042a34	-0.12906724
57	0x3e6850f2	0.22687128
58	0x3ea82274	0.32838786
59	0x3e7a9ffd	0.24475093
60	0x3ea13c96	0.31491536
61	0xbe8b3e97	-0.2719619
62	0x3e31dea9	0.17370094
63	0x3dc5ca07	0.09657674
64	0x3f0d56d5	0.5521062
65	0x3e272cef	0.16325735
66	0x3ea01527	0.31266138
67	0xbe97cb50	-0.29647303
68	0xbe3bc52a	-0.18336931
69	0x3c594699	0.013261461
70	0x3e89c036	0.26904458
71	0xbe9766e5	-0.2957069
72	0x3e811332	0.25209957
73	0x3e842d12	0.25815636
74	0x3e6a569c	0.22884601
75	0x3e319c85	0.17344864
76	0xbf0080f2	-0.50196755
77	0xbe499982	-0.19687465
78	0x3deb19f3	0.11479559
79	0x3e194bad	0.14970274
80	0x3e594d45	0.21220882
81	0x3e2e8621	0.17043354
82	0x3d688a1d	0.05677234
83	0xbe0122d5	-0.12610944
84	0x3dd00951	0.10158027
85	0xbe05a373	-0.13050632
86	0xbe05c911	-0.13064982
87	0xbed2f5db	-0.41203198
88	0x3e6abf12	0.2292445
89	0xbf0b9ad3	-0.5453312
90	0xbeacd423	-0.33755597
91	0x3e1d8e91	0.15386416
92	0xbcc9687e	-0.024585959
93	0xbecb7de7	-0.39744493
94	0xbc4f7e3f	-0.012664377
95	0xbe4882f4	-0.19581205
96	0xbd9e3806	-0.077255294
97	0x3e00f825	0.1259466
98	0xbe92e8aa	-0.28693134
99	0xbe424061	-0.18969871
100	0x3df6df07	0.12054258
101	0x3e817cd5	0.25290552
102	0xbedece20	-0.43516636
103	0x3e43e312	0.19129589
104	0x3e04f662	0.12984613
105	0xbe37f0a6	-0.17962894
106	0xbdd7a69e	-0.105298266
107	0xbec2c727	-0.38042566
108	0xbcfe417e	-0.031037088
109	0x3db3b562	0.087748304
110	0xbd9d7975	-0.07689182
111	0x3e352dda	0.17693272
112	0xbd175cbe	-0.03695368
113	0xbdb80911	-0.08986104
114	0xbee708c5	-0.45123878
115	0x3e98c7d3	0.29839954
116	0x3e94f4ca	0.2909301
117	0xbd9a16d4	-0.07523885
118	0x3ecad9cc	0.3961929
119	0x3d38a80c	0.045082137
120	0xbf1abe4b	-0.60446614
121	0xbc52e8e7	-0.012872911
122	0x3eac765c	0.3368405
123	0x3e053780	0.13009453
124	0xbe25d46a	-0.16194311
125	0xbe02a66f	-0.12758802
126	0xbd40932e	-0.04701536
127	0x3c026418	0.0079584345
128	0x3e60e856	0.21963629
129	0xbe8accec	-0.27109468
130	0xbea87721	-0.32903388
131	0xbdcaff9e	-0.09912036
132	0xbdd1b74d	-0.1024004
133	0xbe1b1919	-0.15146293
134	0xbd5a8ccd	-0.053356934
135	0xbef3ef0a	-0.4764331
136	0x3ca82dbd	0.020529622
137	0x3d09111d	0.033463586
138	0xbbbad4a1	-0.005701617
139	0xbee9c0f7	-0.45655033
140	0x3e46748c	0.19380397
141	0x3e0784ba	0.13234225
142	0xbe582346	-0.21107206
143	0xbe9fd621	-0.31218055
144	0x3d9f8a77	0.07790082
145	0x3e9b6300	0.30348969
146	0x3e0bbb0b	0.1364557
147	0x3dab7f90	0.0837394
148	0xbe029c80	-0.12755013
149	0x3c12ad9a	0.008952523
150	0x3e0e5fe0	0.13903761
151	0xbcba999f	-0.02277833
152	0x3dc10cb7	0.09426253
153	0x3e1e5d15	0.15465195
154	0x3e8924c7	0.2678587
155	0x3e91f9c5	0.28510872
156	0xbe9bd368	-0.30434728
157	0xbd1c7c59	-0.038204525
158	0x3eaeda63	0.3415099
159	0x3e51ba3d	0.204812
160	0xbe064a3a	-0.13114253
161	0x3df5f110	0.1200887
162	0xbe8f6bbf	-0.2801189
163	0xbddf5317	-0.1090452
164	0xbf31d781	-0.6946946
165	0xbea4c1e2	-0.3217917
166	0xbdd51944	-0.1040521
167	0x3dc1f4db	0.094705306
168	0xbe947a1b	-0.2899941
169	0x3eb6f48a	0.35733443
170	0xbf26adbf	-0.65108865
171	0x3e32a236	0.17444691
172	0x3b15c39e	0.0022852193
173	0xbeee8ef5	-0.46593443
174	0x3df25f2f	0.11834561
175	0x3e6d0ca5	0.23149355
176	0xbed10c7f	-0.40829846
177	0xbcd2b002	-0.025718693
178	0x3d2d2457	0.042270985
179	0xbed32632	-0.41240078
180	0x3e7506ed	0.23928423
181	0xbe512348	-0.20423615
182	0x3d9b140d	0.07572184
183	0x3c87f71a	0.01659732
184	0xbe48ff31	-0.19628598
185	0x3e97333c	0.29531276
186	0xbe1f9088	-0.15582478
187	0x3d91f38e	0.071265325
188	0xbe006378	-0.12537944
189	0x3e0e39af	0.13889192
190	0xbecf25ab	-0.40458426
191	0xbda73cb6	-0.081658766
192	0x3dcfb5ae	0.101420745
193	0x3e40e51f	0.18837403
194	0x3d083a20	0.033258557
195	0xbd02785d	-0.03185307
196	0x3e88faea	0.26753932
197	0x3f020e51	0.50803095
198	0x3a0bc544	0.0005331824
199	0xbee07949	-0.43842533
200	0xbd9d1f6a	-0.076720074
201	0xbd713901	-0.058892254
202	0x3deaa9f2	0.11458196
203	0xbc921ef0	-0.017837018
204	0x3dd07993	0.101794384
205	0x3eb4d2ea	0.35317165
206	0xbdbabf18	-0.091184795
207	0x3e58b056	0.21161017
208	0x3e5dc252	0.21656159
209	0x3e9cd934	0.30634463
210	0xbd1bf595	-0.038076002
211	0xbe4d292a	-0.20035234
212	0x3e2bc349	0.16773714
213	0xbe1f4b41	-0.15556051
214	0xbe0fad60	-0.14030981
215	0x3e03d568	0.12874377
216	0xbe3a35fc	-0.18184656
217	0xbe2ddfe1	-0.16979934
218	0xbef3ad08	-0.4759295
219	0xbe093673	-0.13399677
220	0xbe2ec185	-0.1706601
221	0xbdc6a2ee	-0.09699045
222	0x3d970598	0.07374114
223	0xbe3148b4	-0.1731289
224	0x3db884ca	0.090097025
225	0xbe484290	-0.19556642
226	0xbde1e2a5	-0.11029557
227	0x3e9379c2	0.2880383
228	0x3d365dc1	0.044523004
229	0xbecf1f39	-0.40453508
230	0x3dff5ba5	0.12468652
231	0xbee56c4d	-0.4480919
232	0xbddd3be2	-0.10802437
233	0x3ed24bfa	0.4107359
234	0xbe1cd8a7	-0.15317021
235	0x3eb31bd1	0.3498216
236	0x3ea7e94a	0.32795173
237	0x3e410dca	0.18852916
238	0xbdf6c853	-0.120499276
239	0x3e88ff2e	0.26757187
240	0xbe8f28d7	-0.27960846
241	0x3ed3ed15	0.41391817
242	0xbe20a203	-0.15686803
243	0xbed55184	-0.41663754
244	0xbee0607f	-0.4382362
245	0xbc8b4ad6	-0.017003458
246	0x3e278beb	0.16361968
247	0xbe5ce57b	-0.21571915
248	0xbd2099e7	-0.039209273
249	0x3e6debb0	0.23234439
250	0xbf0b1ff5	-0.5434564
251	0x3e93c6ad	0.28862515
252	0xbdbbb317	-0.09165018
253	0xbecc6af3	-0.39925346
254	0x3eeddae7	0.46456072
255	0xbef4f935	-0.4784638

mlp.6.bias f4 [32]
0	0x3e22b60d	0.1588976
1	0x3dc8768b	0.09788235
2	0xbe4f6624	-0.20253807
3	0x3ddbfd27	0.10741644
4	0x3c197f1e	0.009368686
5	0x3cbfa2bb	0.023393026
6	0xbeb545a5	-0.35404697
7	0xbe217dad	-0.15770598
8	0x3e20bafe	0.15696332
9	0xbd45d7fc	-0.048301682
10	0xbe2eb302	-0.17060474
11	0x3e288748	0.16457856
12	0xbe01e20a	-0.12683883
13	0xbdcf5ca9	-0.101250954
14	0xbd3e87f2	-0.046516366
15	0x3d8a01c5	0.06738619
16	0xbea95504	-0.33072674
17	0x3dc0b6dd	0.094098784
18	0x3df56ad4	0.119832665
19	0x3e0e8cf3	0.13920955
20	0xbd4a2be9	-0.049358282
21	0xbe09c3a9	-0.13453545
22	0x3e0d5b49	0.13804354
23	0xbd5336fd	-0.051566113
24	0x3e350ecf	0.1768143
25	0xbd43ebe5	-0.04783239
26	0xbe337696	-0.17525706
27	0x3e7de6cc	0.24795073
28	0x3e38b6a2	0.18038419
29	0xbe0315c8	-0.12801278
30	0x3da0bf96	0.07849042
31	0xbc92545e	-0.017862495

mlp.8.weight f4 [16, 32]
0	0x3dc6e47d	0.097115494
1	0x3ec0b025	0.37634388
2	0x3db22a3f	0.08699464
3	0x3e052ee3	0.13006167
4	0xbeae4502	-0.34037024
5	0x3eb921f5	0.3615872
6	0x3dd41079	0.103547044
7	0xbd87af74	-0.06625262
8	0x3e3d1b43	0.18467431
9	0xbeeb258c	-0.45927083
10	0x3e6677aa	0.22506586
11	0x3ee62acb	0.44954523
12	0x3e9f7e77	0.31151173
13	0xbe768247	-0.24073134
14	0xbd5bc8c3	-0.05365826
15	0xbe653e5d	-0.22387071
16	0xbe3ebaaf	-0.18625902
17	0xbe96e47f	-0.29471204
18	0x3ebe543e	0.37173647
19	0xbec667a7	-0.38750955
20	0xbedd3924	-0.43207657
21	0x3ed893f3	0.42300376
22	0xbeacb2bf	-0.33730122
23	0xbed5b1b4	-0.4173714
24	0xbefec0de	-0.4975652
25	0x3b7d6ae4	0.0038668448
26	0xbe02f69c	-0.12789387
27	0xbec3ade2	-0.382186
28	0x3df017ae	0.117232665
29	0x3def9828	0.116989434
30	0x3e95246a	0.29129344
31	0x3ba7de53	0.0051229387
32	0xbeb7d435	-0.3590409
33	0x3e712fe8	0.23553431
34	0xbe34013f	-0.175786
35	0x3d70b011	0.05876166
36	0xbdbfd9fc	-0.09367749
37	0xbee05e3a	-0.4382189
38	0xbefd0fae	-0.49426025
39	0xbecbc74f	-0.39800498
40	0x3df6d31c	0.12051985
41	0xbef7e7f8	-0.48419166
42	0xbdddae7c	-0.10824296
43	0xbe1cc2e4	-0.1530872
44	0xbe782f9c	-0.24236912
45	0x3ef28379	0.4736593
46	0xbcce30f2	-0.025169823
47	0x3d00ff13	0.031493258
48	0xbd45e656	-0.04831537
49	0xbc4e572a	-0.012594024
50	0x3f17971d	0.59214956
51	0x3e84cf12	0.25939232
52	0xbe1427e1	-0.14468338
53	0x3e4294cb	0.19002073
54	0xbe64af26	-0.22332439
55	0x3e2eefa0	0.17083597
56	0x3b320d2d	0.0027168498
57	0xbf1dcd3d	-0.61641294
58	0xbf161322	-0.58622944
59	0xbdb50975	-0.088396944
60	0xbf23a714	-0.63926816
61	0xbe7cc31a	-0.246838
62	0xbee9f984	-0.45698178
63	0xbc99ea6b	-0.018788537
64	0xbc9d619f	-0.019211588
65	0x3e913b14	0.28365386
66	0x3dc8dba4	0.09807518
67	0xbf15c52f	-0.58504003
68	0xbee1f6a2	-0.44133478
69	0x3dc5eba3	0.09664085
70	0x3dc0e27f	0.09418201
71	0x3e0962f6	0.13416657
72	0x3e853a4e	0.26021045
73	0xbec1a2ad	-0.37819424
74	0xbe4fb0f1	-0.20282342
75	0x3d8b2935	0.06794969
76	0x3f008128	0.50197077
77	0xbea81877	-0.32831165
78	0xbe63c7d9	-0.22244205
79	0x3f1cd9ce	0.61269844
80	0x3caf5a12	0.021405254
81	0xbe427a3b	-0.1899194
82	0x3ddca9a9	0.107745476
83	0x3dde6e4d	0.10860882
84	0xbddaf6a5	-0.10691575
85	0x3e2ca8a2	0.16861203
86	0x3e5c4423	0.21510367
87	0xbeaa5b76	-0.33272904
88	0xbea65505	-0.3248674
89	0x3f13ccd2	0.57734406
90	0xbec749c4	-0.38923466
91	0x3dbf699d	0.09346316
92	0x3ea87a83	0.3290597
93	0xbf15628a	-0.58353484
94	0xbd41849e	-0.047245614
95	0x3e086a3c	0.13321775
96	0x3f1ae943	0.6051218
97	0xbf40d9aa	-0.7533213
98	0xbe2c1dac	-0.16808194
99	0x3ed54455	0.41653696
100	0x3e2b5071	0.16729905
101	0xbdf46ea8	-0.119351685
102	0xbdfbdc32	-0.12297858
103	0xbf6f8325	-0.93559486
104	0x3f10da24	0.56582856
105	0x3e76e13d	0.24109359
106	0x3d44d802	0.048057564
107	0x3e084ae7	0.13309823
108	0x3ddd86ed	0.10816751
109	0xbe998643	-0.29985246
110	0x3dcace2f	0.09902608
111	0x3dfdf5ad	0.124003746
112	0x3e933497	0.2875106
113	0x3e57725d	0.2103972
114	0x3e3cbbd7	0.1843103
115	0xbce5b1b1	-0.028038831
116	0x3ca4e2d2	0.020127688
117	0x3eafc94a	0.3433326
118	0x3df08cc8	0.11745602
119	0xbe8f960c	-0.28044164
120	0xbe85501c	-0.2603768
121	0x3e799dea	0.24376646
122	0xbe3fc0d6	-0.18725905
123	0xbe8560dc	-0.2605046
124	0x3eb710e1	0.35755065
125	0x3ddc9ed3	0.10772481
126	0xbddccbb4	-0.10781041
127	0xbe9cdc13	-0.30636653
128	0xbda9d05f	-0.08291697
129	0x3e92e580	0.2869072
130	0xbda1300c	-0.07870492
131	0xbe683eea	-0.2268025
132	0xbd8c4414	-0.06848922
133	0xbef096a0	-0.46989918
134	0x3e8cee96	0.27525777
135	0xbb87fe8e	-0.0041502183
136	0x3da1214d	0.0786768
137	0xbe729874	-0.23690969
138	0x3ed828c3	0.422186
139	0xbe676ef7	-0.22600923
140	0x3e0d5c1c	0.13804668
141	0xbe2f6bfc	-0.17131037
142	0x3f0667c8	0.5250211
143	0x3ee3c4e6	0.4448616
144	0x3e262fee	0.16229221
145	0xbdd67e06	-0.10473256
146	0x3e9113ad	0.28335324
147	0xbdfb8c1a	-0.122825816
148	0x3f3eb0f3	0.74488753
149	0xbd8c9867	-0.06865006
150	0x3de1ac82	0.110192314
151	0x3db90654	0.0903441
152	0x3dc54346	0.09631972
153	0x3e318c39	0.17338647
154	0x3edbfe86	0.42967623
155	0x3e4ffdad	0.20311613
156	0xbbf4421e	-0.007454171
157	0xbf1e7ea9	-0.6191202
158	0x3f1619b2	0.5863296
159	0xbea79292	-0.32729012
160	0x3e2871dc	0.16449684
161	0xbc753254	-0.014965612
162	0xbe90268a	-0.28154403
163	0xbd3f679f	-0.04672968
164	0xbd46a0a8	-0.048493057
165	0xbedc4938	-0.4302461
166	0xbeb50fff	-0.35363767
167	0xbe840943	-0.25788316
168	0x3e2b156e	0.16707394
169	0xbe61014b	-0.2197315
170	0xbd8d4d44	-0.06899503
171	0xbddd9cb9	-0.10820908
172	0x3d63f665	0.055654902
173	0x3d8d2e81	0.068936355
174	0x3eb0dd22	0.3454371
175	0x3ea91739	0.3302553
176	0xbe46748c	-0.19380397
177	0x3ef6cd5c	0.48203552
178	0x3eb3743a	0.3504961
179	0xbf0ee173	-0.5581276
180	0xbf12c12c	-0.57326007
181	0xbf18ffed	-0.5976551
182	0x3e635c81	0.22203256
183	0xbe92f7a3	-0.28704557
184	0x3e975509	0.29557064
185	0xbe266a4a	-0.16251484
186	0x3e7e3f17	0.24828754
187	0xbdb0ae8a	-0.08627041
188	0x3dffb54e	0.12485753
189	0x3e1163b9	0.14198197
190	0xbddd82e4	-0.10815981
191	0x3f4df700	0.8045502
192	0xbdca98af	-0.09892403
193	0x3e204697	0.15651928
194	0xbd343ccc	-0.044003293
195	0x3d22894e	0.039681725
196	0xbda37402	-0.07981111
197	0x3f1f7fd9	0.62304455
198	0xbe4fd326	-0.2029539
199	0xbe41fbb0	-0.18943667
200	0xbea18cc5	-0.3155271
201	0x3e8ec616	0.27885503
202	0xbe0139b7	-0.12619673
203	0xbf46c41b	-0.77642983
204	0x3d95502c	0.07290682
205	0x3d8da082	0.0691538
206	0x3f061c3f	0.5238685
207	0xbe75d9f8	-0.2400893
208	0x3efe10ae	0.496221
209	0x3e66f285	0.22553451
210	0xbe6595e0	-0.22420454
211	0xbe5813de	-0.21101329
212	0x3e1c1712	0.15243176
213	0x3e4be194	0.1991027
214	0xbe0b7d48	-0.1362201
215	0x3d93d028	0.07217437
216	0xbf41515c	-0.7551477
217	0xbe910ab5	-0.2832848
218	0xbc1d97f0	-0.009618744
219	0x3ecaa4e6	0.39578933
220	0x3ea5c44c	0.32376325
221	0xbeaef421	-0.3417063
222	0x3e8a0abe	0.2696132
223	0x3e304dfb	0.17217247
224	0xbc385b2f	-0.011252209
225	0x3e12f0a8	0.14349616
226	0x3ec3be02	0.38230902
227	0xbe67c577	-0.2263392
228	0x3cecd9e0	0.028912485
229	0xbe3de6f0	-0.18545127
230	0xbdb69ca3	-0.08916595
231	0xbc0abcc8	-0.0084678605
232	0x3ed11fc6	0.40844554
233	0xbe30855c	-0.17238373
234	0xbe669118	-0.22516286
235	0xbe6dcd20	-0.2322278
236	0xbcf807c7	-0.030277146
237	0x3e59ecb0	0.21281695
238	0x3dfe4fbc	0.12417552
239	0xbe6f21c7	-0.23352729
240	0x3e414f64	0.18877941
241	0x3e8f728e	0.28017086
242	0x3dd7449a	0.105111316
243	0xbd8b1d47	-0.067926936
244	0x3e63bd2d	0.22240134
245	0xbd7cd5ea	-0.06172744
246	0xbea8ab45	-0.32943168
247	0xbe0e8f0d	-0.13921757
248	0x3e10be3a	0.14135066
249	0x3e1f7686	0.15572557
250	0xbc36dd7d	-0.011161205
251	0xbd71773b	-0.058951598
252	0x3d8bfa05	0.06834797
253	0x3e4b4805	0.19851692
254	0xbdda763d	-0.106670834
255	0xbe06c5e8	-0.13161433

mlp.8.bias f4 [16]
0	0xbc3349d4	-0.010942895
1	0x3e283afa	0.16428748
2	0x3db4294b	0.087969385
3	0x3db225b3	0.08698597
4	0x3c3dc653	0.011582929
5	0x3de10973	0.109881304
6	0x3d373a7e	0.044733517
7	0xbd9d70fb	-0.07687565
8	0xbe176741	-0.14785482
9	0xbeb692c3	-0.35658845
10	0xbe1dfb1b	-0.1542782
11	0xbe98efe9	-0.29870537
12	0xbdf45a08	-0.119312346
13	0xbe824d2d	-0.25449505
14	0x3ce0163e	0.027354356
15	0xbf2b7188	-0.6697011
