mujoco_playground/_src/manipulation/airbot_play/onnx/airbot_play_policy.onnx (onnx, 24452 bytes, 12 tensors)

obs_mean f4 [50]
0	0x3db0ca9f	0.08632397
1	0xbf0f2531	-0.55916125
2	0x3eaae464	0.33377373
3	0x3fbec9b3	1.4905304
4	0xbf468066	-0.7753967
5	0xbfc416e8	-1.531949
6	0x3ccd6e00	0.025076866
7	0x3ccd5e63	0.025069421
8	0x3d439580	0.047749996
9	0xbdc8a0e9	-0.09796316
10	0xbd290e9e	-0.041273706
11	0xbd309e49	-0.043119702
12	0xbb29434e	-0.002582747
13	0x3cccda5c	0.025006466
14	0x3c10e873	0.008844483
15	0x3c112650	0.008859232
16	0x3e7f59df	0.24936627
17	0x3bc22495	0.005924771
18	0x3d7b6230	0.061372936
19	0x3f77e31b	0.9683091
20	0x3d90271d	0.0703871
21	0xbbbdd194	-0.005792806
22	0xbd3a5be0	-0.045497775
23	0x3f07132f	0.52763647
24	0xbf4df4e4	-0.804518
25	0x3c887232	0.016656015
26	0x3f751396	0.9573301
27	0x3d12fe38	0.035886973
28	0x3ce99c9e	0.028517064
29	0xbd19f16d	-0.037583757
30	0x3f73ff29	0.9531122
31	0x394d14f3	0.00019558128
32	0xb96f448f	-0.00022818356
33	0xbc34d434	-0.011036921
34	0x3a33c7e9	0.0006858097
35	0xbbb585f4	-0.00553965
36	0x3df544d2	0.11976017
37	0x3d27e876	0.040993176
38	0x3c3d57a2	0.011556538
39	0x3cfacd1e	0.030615386
40	0xbc887232	-0.016656015
41	0x3d2ec67e	0.042669766
42	0xbd12fe38	-0.035886973
43	0x3c24a604	0.010049347
44	0xbc7e94ff	-0.015538453
45	0xba9867bd	-0.0011627596
46	0xbb02943b	-0.0019924778
47	0xbb831ab7	-0.0040009874
48	0x3991438f	0.0002770689
49	0xbb781864	-0.0037856335

obs_std f4 [50]
0	0x3e6d5864	0.2317825
1	0x3e84a2ab	0.25905356
2	0x3e152a95	0.14567025
3	0x3e5a3f6f	0.2131326
4	0x3e9438d7	0.28949615
5	0x3e73445c	0.23756546
6	0x3c2d4cd0	0.010577396
7	0x3c2d0da4	0.010562334
8	0x3ea3d159	0.31995657
9	0x3f1761de	0.5913371
10	0x3ed721e7	0.42018053
11	0x3f00b94f	0.5028276
12	0x3f12e8df	0.57386583
13	0x3f230a7c	0.6368787
14	0x3de603c9	0.11231191
15	0x3de605ca	0.11231573
16	0x3d67b87e	0.05657243
17	0x3d497544	0.0491841
18	0x3d8375ff	0.0641899
19	0x3dcada8a	0.09904964
20	0x3e1b3ef0	0.15160728
21	0x3e0741c4	0.13208681
22	0x3e0b6792	0.13613728
23	0x3e290f3a	0.16509715
24	0x3e0e6a99	0.13907851
25	0x3df748bb	0.12074419
26	0x3e443894	0.19162208
27	0x3e1d00ff	0.15332411
28	0x3e126526	0.14296398
29	0x3e1e8a67	0.15482484
30	0x3e471342	0.1944094
31	0x3cab9840	0.020946622
32	0x3c8ae815	0.016956368
33	0x3d13f6cb	0.036124032
34	0x3d934266	0.07190399
35	0x3d799787	0.060935523
36	0x3d80ee2b	0.06295427
37	0x3e451aab	0.19248454
38	0x3df37eff	0.11889457
39	0x3e140b47	0.14457427
40	0x3df748bb	0.12074419
41	0x3e443893	0.19162206
42	0x3e1d00ff	0.15332411
43	0x3d6ec7e2	0.05829609
44	0x3da9f3c9	0.082984515
45	0x3d6328a7	0.05545869
46	0x3ce77967	0.028256131
47	0x3d30b0bd	0.0431373
48	0x3cb472b2	0.022027347
49	0x3c5a6c11	0.013331429

mlp.0.weight f4 [32, 50]
0	0x3dec1913	0.1152822
1	0x3d94d818	0.07267779
2	0xbb8887e7	-0.0041665914
3	0x3dc66d6c	0.09688839
4	0xbd98efc8	-0.0746761
5	0xbd9d3062	-0.07675244
6	0xbe4a8d11	-0.19780375
7	0xbe13a2fe	-0.14417645
8	0x3d32a4ce	0.0436142
9	0x3e4a3691	0.19747378
10	0x3e58ce09	0.21172346
11	0x3e0e2199	0.13880004
12	0xbd341d92	-0.043973513
13	0xbb431a15	-0.0029770185
14	0xbe645f98	-0.22302091
15	0x3df8eae5	0.121541776
16	0x3e37a11c	0.17932552
17	0x3dfbc8e9	0.1229418
18	0xbca044f1	-0.019564124
19	0xbdbb5652	-0.09147324
20	0x3e3a9472	0.1822069
21	0xbec0fa01	-0.37690738
22	0xbdd2528c	-0.10269651
23	0x3d5ff971	0.054681245
24	0xbe7abca0	-0.24486017
25	0x3e03947b	0.1284961
26	0xbe62a5c8	-0.22133553
27	0x3ddc1df9	0.10747904
28	0x3e5ef563	0.21773295
29	0x3d710fb7	0.058852877
30	0x3e0da114	0.13830978
31	0x3e2e8987	0.1704465
32	0x3eb3a3da	0.35085946
33	0x3ed2244b	0.41043314
34	0x3ee37159	0.44422415
35	0xbf9b35a5	-1.2125746
36	0xbeab3eca	-0.33446342
37	0xbf09be04	-0.53805566
38	0x3ca939d2	0.020657454
39	0xbcbd5047	-0.023109568
40	0x3df97872	0.12181176
41	0xbd6458b3	-0.055748653
42	0x3eac3f1b	0.33641896
43	0xbc93c3f7	-0.01803778
44	0xbe7aa9ca	-0.24478832
45	0xbdf98dc2	-0.12185241
46	0x3c6aa759	0.014322125
47	0xbdefeb34	-0.11714783
48	0x3c207620	0.009793788
49	0xbd80fbea	-0.06298049
50	0x3dba5b48	0.09099442
51	0xbe33b49b	-0.17549364
52	0x3d200d37	0.039075103
53	0xbd823b3a	-0.06358953
54	0xbc9a8521	-0.018862309
55	0xbd80faea	-0.06297858
56	0x3ead675f	0.33867928
57	0x3f12d62c	0.5735805
58	0xbe2ed261	-0.1707244
59	0xbe7c85b4	-0.24660379
60	0xbe87c02a	-0.26513797
61	0xbe161860	-0.14657736
62	0xbe80a58b	-0.251263
63	0xbd9e3412	-0.077247754
64	0xbd61f6c7	-0.055166986
65	0x3db4ed40	0.08834314
66	0xbe5cbe4e	-0.2155697
67	0xbe2c10cc	-0.16803282
68	0xbe4e3280	-0.20136452
69	0xbd2b587c	-0.041832432
70	0xbc33c0f7	-0.010971299
71	0x3d091d5b	0.03347526
72	0xbd874308	-0.06604582
73	0xbc53404c	-0.012893748
74	0xbb539047	-0.003228204
75	0x3e79bdf7	0.24388872
76	0x3e5a94c6	0.21345815
77	0x3c07c470	0.00828658
78	0xbcbaecc8	-0.022817984
79	0x3d17fb62	0.03710497
80	0xbd95adbd	-0.073085286
81	0x3fa3fa7d	1.2810818
82	0x3f8229bf	1.016899
83	0xbdf1d2a4	-0.11807755
84	0xbe92a46e	-0.28641075
85	0xbe397e55	-0.18114598
86	0x3ddb7eda	0.107175544
87	0xbe0fb7c9	-0.14034952
88	0xbe068926	-0.13138255
89	0x3e88ab83	0.26693353
90	0xbe08ad46	-0.13347349
91	0xbcc2c258	-0.023774311
92	0x3dda4b98	0.106589496
93	0xbdf3cf83	-0.11904814
94	0xbdf4138d	-0.119177915
95	0xbe89262e	-0.2678694
96	0xbe8671b1	-0.26258615
97	0xbe12cd59	-0.14336146
98	0x3c190c19	0.009341263
99	0x3e13d82c	0.14437932
100	0xbde8e3dc	-0.11371586
101	0x3d801263	0.06253507
102	0x3cf27ab2	0.029599521
103	0x3e660951	0.22464491
104	0xbdfaa96a	-0.122393444
105	0xbc42069d	-0.011842397
106	0xbebf8d5f	-0.37412545
107	0xbe85d716	-0.2614066
108	0xbdd4ac41	-0.10384417
109	0xbc41a220	-0.011818439
110	0x3dc4d358	0.09610623
111	0x3d22d45a	0.039753295
112	0x3e4e3d4d	0.20140572
113	0x3e19e4be	0.15028664
114	0x3cf80d15	0.030279675
115	0xbea86408	-0.32888818
116	0xbdb502f9	-0.088384576
117	0x3d39da83	0.045374405
118	0x3e236d81	0.15959741
119	0xbe471f78	-0.19445598
120	0xbea1abd5	-0.3157641
121	0xbd9182df	-0.0710504
122	0x3e916282	0.28395468
123	0xbddfe45c	-0.10932228
124	0x3c495734	0.012288857
125	0x3dad8d22	0.084741846
126	0x3ee045b3	0.43803176
127	0xbdf7ab47	-0.120932154
128	0x3d33a949	0.043862615
129	0xbdeaad37	-0.11458819
130	0x3dd08cc8	0.10183102
131	0x3e2c8877	0.16848932
132	0x3c7a2a10	0.015268818
133	0x3d3d55aa	0.046224274
134	0xbee9f037	-0.45691082
135	0xbebb8d93	-0.3663145
136	0x3dc6caf1	0.09706677
137	0xbe265a5f	-0.16245411
138	0x3d453c44	0.048153177
139	0xbde566f4	-0.112012774
140	0x3ea9af64	0.33141625
141	0xbea07973	-0.31342658
142	0xbdd24aeb	-0.10268196
143	0xbe624cd8	-0.22099626
144	0x3ed13d6a	0.40867168
145	0x3ea4ab6b	0.32162032
146	0x3e855d0e	0.26047558
147	0xbc3874e7	-0.01125834
148	0x3ca36954	0.019947685
149	0xbed41eef	-0.4142985
150	0x3e690679	0.22756375
151	0xbe3793d7	-0.1792749
152	0x3e00078a	0.12502876
153	0x3e21fb64	0.15818554
154	0xbd064bbb	-0.032787066
155	0x3e4f58e3	0.20248751
156	0x3eda58ff	0.42646024
157	0x3db30944	0.08742002
158	0x3e296138	0.16540992
159	0xbe5fb472	-0.21846178
160	0xbdb43fb5	-0.08801214
161	0x3d35d8bf	0.04439616
162	0xbe4ed071	-0.20196702
163	0x3d538103	0.051636707
164	0x3cd6a601	0.026202204
165	0x3e6982ad	0.22803755
166	0x3e0a9323	0.1353269
167	0xbe5cc546	-0.21559629
168	0xbd861684	-0.06547263
169	0x3f6b8eab	0.9201457
170	0xbe257176	-0.16156563
171	0xbe55ca7d	-0.20878024
172	0xbe13dd06	-0.14439783
173	0xbd8f9271	-0.07010353
174	0xbe9f1eeb	-0.31078276
175	0xbe56103e	-0.20904633
176	0x3e02ec26	0.12785396
177	0x3dc4534e	0.095862016
178	0x3e14e8fd	0.14542003
179	0xbe55ea58	-0.20890176
180	0x3d0cf01a	0.034408666
181	0xbead884f	-0.33893058
182	0xbf486b0a	-0.7828833
183	0x3d8a6d74	0.06759158
184	0xbda9afee	-0.08285509
185	0xbd0f655f	-0.035008784
186	0x3ce563fc	0.028001778
187	0xbde5340c	-0.11191568
188	0xbd314ab3	-0.04328413
189	0xbed37b94	-0.4130522
190	0x3dfe34b4	0.12412396
191	0xbe25b1fc	-0.16181177
192	0xbeb048b9	-0.34430483
193	0x3e234b7a	0.15946761
194	0xbe6878d7	-0.22702347
195	0x3e8c73d2	0.27432114
196	0x3d711fd3	0.05886824
197	0x3e19305a	0.14959851
198	0x3d73e7b0	0.059547126
199	0x3e870fd0	0.2637925
200	0x3db0dcde	0.08635877
201	0x3e660a02	0.22464755
202	0x3b93f0da	0.0045147957
203	0xbb902e57	-0.0044000554
204	0xbe9b9b03	-0.30391702
205	0x3d80d479	0.06290526
206	0x3d0ac09e	0.0338751
207	0x3e8d1a70	0.27559233
208	0xbd5bf74e	-0.053702645
209	0x3d88acec	0.06673607
210	0x3da484d9	0.08033151
211	0xbd4ce1d8	-0.05002007
212	0x3d5fc6df	0.054633018
213	0x3c6682bd	0.014069256
214	0x3e35cf2d	0.17754813
215	0xbcfdf802	-0.031002048
216	0x3e7a2b96	0.24430689
217	0xbe05d643	-0.13070016
218	0x3ed18f75	0.40929762
219	0x3f626978	0.8844218
220	0xbe99d34d	-0.30044022
221	0xbdd8c353	-0.1058413
222	0x3e271103	0.16315083
223	0x3e0dca1a	0.13846627
224	0xbd6f44a8	-0.058415085
225	0xbd4eb27e	-0.050463192
226	0xbe1bf3d9	-0.15229739
227	0x3ebe4b8a	0.37167007
228	0x3dc50255	0.096195854
229	0xbe20ce8d	-0.15703793
230	0xbe31c4f8	-0.17360294
231	0x3d03bbc4	0.03216149
232	0xbd901d83	-0.07036879
233	0x3e78c4d8	0.2429384
234	0x3d9feac7	0.07808452
235	0x3c6be030	0.014396712
236	0xbeb659cd	-0.35615388
237	0xbd28e733	-0.041236114
238	0xbe547ec5	-0.20751484
239	0xbc030ded	-0.007998926
240	0x3e497d6f	0.19676755
241	0xbdc88dbd	-0.097926594
242	0xbeb9351e	-0.36173338
243	0x3deea6ea	0.1165293
244	0x3ed610be	0.41809648
245	0x3ecb1a43	0.39668474
246	0xbd979302	-0.074010864
247	0xbc55c437	-0.01304727
248	0x3d29a4b0	0.041416824
249	0x3e7f663b	0.24941342
250	0x3e5e0ee1	0.21685363
251	0xbe2f444f	-0.17115901
252	0x3e3d132c	0.18464345
253	0x3e9456c8	0.2897246
254	0xbc8ce46f	-0.01719877
255	0xbe35bc4d	-0.17747612

mlp.0.bias f4 [32]
0	0xbee17d7c	-0.4404105
1	0x3ee03109	0.4378741
2	0xbdc6ae01	-0.09701157
3	0xbe244e72	-0.1604555
4	0x3e82d6d2	0.2555452
5	0xbbea1231	-0.007143282
6	0xbe7ecfc8	-0.2488395
7	0xbe9f403b	-0.3110369
8	0x3df828fd	0.12117193
9	0xbe9bb1b9	-0.3040903
10	0xbe00d9de	-0.1258311
11	0x3dbb1b30	0.09136045
12	0x3d38d344	0.045123354
13	0xbd3e33de	-0.046436183
14	0xbe214f21	-0.15752842
15	0x3c144d32	0.009051608
16	0xbdde67db	-0.108596526
17	0xbf02a10a	-0.51026976
18	0x3d739ed8	0.059477657
19	0xbe57a81a	-0.2106022
20	0xbd8df906	-0.06932263
21	0xbdc16fd7	-0.0944516
22	0xbea2e38c	-0.3181423
23	0x3e336f01	0.17522813
24	0xbde1973d	-0.110151745
25	0xbe87d11d	-0.26526728
26	0xbdb1e697	-0.0868656
27	0xbead6143	-0.33863267
28	0xbdba799e	-0.09105228
29	0xbd41bb8a	-0.04729799
30	0xbeaa3377	-0.3324239
31	0xbc521a82	-0.012823703

mlp.2.weight f4 [32, 32]
0	0x3ed22bca	0.41049033
1	0xbe5e4d08	-0.21709073
2	0x3cb3943d	0.021921271
3	0x3cf2a305	0.02961875
4	0x3d0f48f8	0.034981698
5	0x3e7ac1e4	0.24488026
6	0xbec931d7	-0.39295837
7	0x3deef9c9	0.116687365
8	0xbe73ea4d	-0.23819847
9	0xbdd8c0a5	-0.10583619
10	0x3e8ade3a	0.2712267
11	0x3ecfbf6a	0.40575725
12	0xbf09ddf5	-0.53854305
13	0xbe3cc390	-0.18433976
14	0x3d8d5bdf	0.06902289
15	0x3d8cd142	0.0687585
16	0x3d9c5d0f	0.07634937
17	0x3e447fc6	0.19189367
18	0xbe90dcba	-0.282934
19	0xbf126763	-0.57189006
20	0xbe1cdc39	-0.15318383
21	0x3ece31c9	0.40272358
22	0xbd3b9349	-0.04579476
23	0x3e78d806	0.24301156
24	0xbe35dd99	-0.17760314
25	0x3e9dc5f7	0.30815098
26	0xbe9fc26e	-0.31203026
27	0xbe9365ca	-0.28788596
28	0xbea0dedd	-0.3142003
29	0xbd854da8	-0.065089524
30	0xbe8ef298	-0.2791946
31	0xbe7df431	-0.24800183
32	0x3c3ad70a	0.011403808
33	0x3db601b6	0.08887045
34	0xbdc448fe	-0.09584235
35	0xbe2320dd	-0.15930505
36	0x3e87cad3	0.2652193
37	0x3dc8359e	0.09775852
38	0x3e2e9cfb	0.17052071
39	0xbd1f784e	-0.03893309
40	0x3e94e54e	0.29081196
41	0xbf23b0dd	-0.63941747
42	0xbc41e1c3	-0.011833611
43	0xbe12c622	-0.14333394
44	0xbe076f73	-0.13226108
45	0x3e60ee89	0.21965994
46	0xbea4bc08	-0.32174706
47	0x3c6022a7	0.013680137
48	0x3e9effb7	0.3105447
49	0x3eac958a	0.3370784
50	0xbdb4b70a	-0.088239744
51	0xbd677c85	-0.056515235
52	0x3d72d4a6	0.05928483
53	0x3eb4dd1f	0.35324952
54	0xbebcf904	-0.36908734
55	0x3d4cad7d	0.04997014
56	0xbddf5b00	-0.10906029
57	0x3e34a9b9	0.17642869
58	0x3e005609	0.1253282
59	0xbe7c2915	-0.24625047
60	0x3e875610	0.26432848
61	0xbefb7358	-0.49111438
62	0xbebfec6f	-0.37485072
63	0xbe627e60	-0.2211852
64	0xbb997f92	-0.004684397
65	0xbe04027e	-0.12891576
66	0x3e7755b3	0.24153785
67	0xbeb969be	-0.36213487
68	0x3e288cf7	0.16460024
69	0xbf3903ae	-0.7227124
70	0xbe981a2a	-0.29707462
71	0x3e7533c6	0.23945531
72	0xbecd49f1	-0.40095475
73	0xbe03e608	-0.12880719
74	0x3f15167c	0.58237433
75	0xbe359c80	-0.17735481
76	0xbe309dc5	-0.17247684
77	0xbd5e5fa5	-0.054290432
78	0x3dd8d5c6	0.10587649
79	0xbe829615	-0.25505129
80	0xbf3e127f	-0.7424697
81	0xbe08ea36	-0.13370594
82	0xbee520be	-0.44751543
83	0xbd95f88c	-0.07322797
84	0xbd5a774e	-0.053336434
85	0xbebdd828	-0.37078977
86	0xbdfd5315	-0.12369362
87	0xbe790745	-0.2431918
88	0xbeee847b	-0.4658545
89	0x3e58889c	0.21145862
90	0x3ddc3d8f	0.10753929
91	0x3ecbf274	0.39833415
92	0x3ccdf10a	0.02513935
93	0xbe403ee1	-0.18773986
94	0xbea28a2a	-0.31746036
95	0x3eacaee8	0.33727193
96	0x3eae8228	0.34083676
97	0xbe092f10	-0.13396859
98	0xbe77ee1b	-0.24211924
99	0x3dc9447f	0.09827518
100	0x3e41aca7	0.18913518
101	0x3eeedf81	0.46654895
102	0x3dec754e	0.115458116
103	0xbe4dba6a	-0.20090643
104	0x3e2c1fa0	0.16808939
105	0x3c7aa99a	0.015299225
106	0x3d3a08cb	0.045418542
107	0xbe730992	-0.2373412
108	0xbd907fcf	-0.070556276
109	0xbf1c2578	-0.6099467
110	0x3e9efa5c	0.31050384
111	0xbe9fe1b6	-0.3122689
112	0xbd27d41a	-0.04097376
113	0x3b3397b7	0.0027403662
114	0x3df3e460	0.119087934
115	0x3ebbb79c	0.3666352
116	0x3ed239a1	0.41059592
117	0x3e034416	0.12818941
118	0x3e60c57a	0.21950331
119	0x3c82a10f	0.01594594
120	0x3e2799c4	0.1636725
121	0xbef2764d	-0.4735588
122	0x3e0e8005	0.13916023
123	0x3d8aeea0	0.06783795
124	0x3d8ca856	0.06868045
125	0xbe4f9e4c	-0.20275229
126	0x3e1ada8c	0.15122432
127	0xbdac2bb2	-0.08406772
128	0xbe8efdda	-0.27928048
129	0x3e53cccc	0.20683593
130	0xbeb0d2f0	-0.34535933
131	0xbe836e3a	-0.25670034
132	0x3e845e5a	0.25853235
133	0xbdeed3f8	-0.116615236
134	0xbd8317a1	-0.06400991
135	0xbe5bbf11	-0.21459605
136	0xbe150c2f	-0.14555429
137	0xbc58dbd1	-0.013236002
138	0xbf0ec743	-0.557728
139	0x3e7c9beb	0.24668853
140	0xbe926790	-0.28594637
141	0x3e39f0c7	0.18158256
142	0x3dc4c834	0.09608498
143	0xbc4373f4	-0.011929501
144	0x3e6715ca	0.22566906
145	0xbd9aa6f6	-0.075513765
146	0xbd7b5d0c	-0.061368033
147	0x3d865d4f	0.06560766
148	0xbd80be2b	-0.06286272
149	0xbe8acd12	-0.2710958
150	0xbe7df211	-0.24799372
151	0x3e2c02c7	0.16797934
152	0x3e249a98	0.16074598
153	0x3d6a9813	0.057273936
154	0xbe251b7b	-0.16123764
155	0xbef97d8e	-0.48728603
156	0xbd2eecc1	-0.042706255
157	0x3e8c0cb9	0.27353457
158	0xbe950477	-0.2910497
159	0xbde543b0	-0.11194551
160	0x3eab6267	0.33473513
161	0xbeec0e64	-0.4610473
162	0xbd45e0b6	-0.048310004
163	0x3da2d959	0.07951612
164	0x3e4708cd	0.19436951
165	0x3e9d4700	0.3071823
166	0xbef21501	-0.4728165
167	0x3e8d2911	0.27570394
168	0xbf1af0de	-0.60523784
169	0xbe88095c	-0.2656964
170	0xbe5cc880	-0.2156086
171	0xbea04fff	-0.31311032
172	0xbe9ee903	-0.3103715
173	0xbea0373a	-0.31292135
174	0x3ddeb9a3	0.10875251
175	0x3d88ee08	0.06686026
176	0x3e2e3c56	0.17015204
177	0x3e80ce91	0.25157598
178	0xbe727f19	-0.23681296
179	0xbe491ce1	-0.19639923
180	0xbe8a0617	-0.2695777
181	0x3ecc801b	0.39941487
182	0x3ee0b07c	0.43884647
183	0x3e4acda3	0.19805007
184	0xbf3d424a	-0.73929274
185	0xbf3b52cc	-0.73173213
186	0xbe236e01	-0.15959932
187	0xbe67309c	-0.22577137
188	0x3daed85f	0.08537363
189	0xbdcd8895	-0.100358166
190	0x3d95acd5	0.07308356
191	0x3d5c897c	0.053842053
192	0xbe5520b4	-0.20813257
193	0xbe97c24b	-0.2964042
194	0xbe1b0ef9	-0.1514243
195	0xbe912ebe	-0.28355974
196	0xbd96c80a	-0.07362373
197	0xbe8d3709	-0.2758105
198	0x3e36fba4	0.17869431
199	0x3e6f1108	0.2334634
200	0xbd38aa4e	-0.04508429
201	0x3debcced	0.11513696
202	0xbe258049	-0.16162218
203	0xbe3e9f4e	-0.18615457
204	0xbe956215	-0.29176393
205	0x3ea18abc	0.31551158
206	0x3db45fb7	0.08807319
207	0x3eb9c9c0	0.36286736
208	0x3e2803a8	0.16407645
209	0xbe644c7c	-0.22294801
210	0x3e426e04	0.1898728
211	0xbf14e0d4	-0.5815556
212	0xbe2f7409	-0.17134108
213	0x3e9d585f	0.30731484
214	0xbf10cb0d	-0.5655983
215	0xbec0bc37	-0.37643597
216	0xbdce33a3	-0.10068443
217	0x3e4ce413	0.20008878
218	0x3ec7475d	0.38921633
219	0x3d15ded8	0.036589473
220	0xbd9a883d	-0.07545517
221	0xbe4b46f2	-0.19851282
222	0x3d8523ee	0.06500994
223	0x3c9ef89f	0.019405661
224	0x3e77eee5	0.24212225
225	0xbef21ed7	-0.47289154
226	0x3e41df5e	0.18932864
227	0xbd8e470f	-0.06947147
228	0x3e490c44	0.19633585
229	0xbe8a7dfb	-0.2704924
230	0xbe72aa40	-0.23697758
231	0xbe0729fa	-0.13199607
232	0x3ebd51b0	0.36976385
233	0xbe786801	-0.24258424
234	0x3e584551	0.21120192
235	0x3e0f22d3	0.13978128
236	0xbf45b047	-0.772221
237	0x3e93e714	0.28887236
238	0x3e7af4e0	0.24507475
239	0x3ea37196	0.31922597
240	0x3d7ba638	0.061437815
241	0x3b759893	0.0037474975
242	0xbd7b8cc9	-0.06141356
243	0xbd820519	-0.063486286
244	0x3d0672e2	0.032824405
245	0xbe7948f1	-0.24344231
246	0xbdcd981e	-0.1003878
247	0xbe6574b5	-0.22407801
248	0x3d95dcf6	0.073175356
249	0xbdb31488	-0.087441504
250	0xbd409991	-0.047021452
251	0xbdb6aad9	-0.08919305
252	0x3e2248c6	0.15848073
253	0xbd6be7b6	-0.057594024
254	0x3eaa268e	0.3323254
255	0xbdb3507b	-0.08755585

mlp.2.bias f4 [32]
0	0x3d0fcce5	0.035107512
1	0xbdf769f9	-0.120807596
2	0x3c2fb819	0.010725045
3	0xbd514d6c	-0.051099226
4	0x3e3a0548	0.18166077
5	0xbca7ba80	-0.020474672
6	0x3c773d9a	0.015090371
7	0x3d50c5bd	0.050969828
8	0xbe27f76d	-0.16402979
9	0xbea8d3ab	-0.3297399
10	0xbb675d66	-0.0035303473
11	0xbe3abffd	-0.182373
12	0x3e82c95c	0.2554425
13	0x3d962b18	0.07332438
14	0x3d2e7980	0.04259634
15	0x3e48fbf7	0.19627367
16	0xbd1dec03	-0.038555156
17	0xbd46c642	-0.048528917
18	0xbdee452c	-0.11634287
19	0x3d22ae3c	0.039716944
20	0xbe23d814	-0.16000396
21	0xbe180518	-0.14845693
22	0xbd8faf96	-0.07015912
23	0x3eb87efe	0.36034387
24	0x3e5676a3	0.20943694
25	0xbe12339e	-0.14277503
26	0xbec1a150	-0.37818384
27	0xbd58a7d3	-0.052894425
28	0x3e12b658	0.14327371
29	0xbd3c8a9b	-0.046030622
30	0xbc8fb1e7	-0.017540885
31	0x3e391889	0.18075766

mlp.4.weight f4 [32, 32]
0	0xbebf53cf	-0.37368628
1	0x3e8ad967	0.2711899
2	0xbc694b22	-0.014239104
3	0xbbb9233f	-0.0056499536
4	0x3e69c764	0.22829968
5	0xbb8353a7	-0.004007775
6	0xbbae6d24	-0.005323069
7	0xbedff480	-0.43741226
8	0x3e3d2df7	0.18474565
9	0x3d255689	0.04036573
10	0x3c0ffaf5	0.00878786
11	0x3b34e217	0.002760058
12	0x3dcc091f	0.09962677
13	0x3b7d5b7b	0.0038659263
14	0xbde1b239	-0.110203214
15	0xbf57dc21	-0.84320265
16	0x3e0757c6	0.13217077
17	0xbd4af78a	-0.049552478
18	0xbe99eaa3	-0.30061826
19	0x3e627f5d	0.22118898
20	0x3caccf93	0.021095073
21	0xbe6082b2	-0.21924856
22	0x3ceee089	0.029159801
23	0xbcb334f3	-0.021875834
24	0x3c7b6a2c	0.015345138
25	0xbe2afc66	-0.16697845
26	0x3dfea60f	0.12434017
27	0x3dae2a5e	0.08504175
28	0x3d5e2974	0.05423875
29	0x3e2f5b1f	0.17124604
30	0xbeafb01f	-0.34314057
31	0x3dd24529	0.102670975
32	0xbf12c014	-0.5732434
33	0xbda569d9	-0.080768295
34	0xbe86493e	-0.26227754
35	0x3d91df20	0.07122636
36	0xbee6d33b	-0.4508303
37	0x3ed84540	0.42240334
38	0xbeb72dd3	-0.3577715
39	0xbeb36299	-0.35036162
40	0xbf1ef5fb	-0.62094086
41	0xbde1b4b4	-0.110207945
42	0xbe968721	-0.2939997
43	0xbd1fbf19	-0.039000604
44	0x3e0cc590	0.13747239
45	0xbeea6f3e	-0.45787996
46	0xbe607b40	-0.21922016
47	0x3e3b971b	0.18319361
48	0x3cc81466	0.02442379
49	0x3e07df9f	0.13268898
50	0xbd26b47a	-0.04069946
51	0x3e92a8cd	0.2864441
52	0x3e24ee23	0.16106467
53	0x3e05ec69	0.13078465
54	0xbeddd62f	-0.43327472
55	0x3e34a31c	0.17640346
56	0x3e14dbeb	0.14537017
57	0xbe07f295	-0.13276131
58	0xb9eda116	-0.0004532418
59	0x3e36edd0	0.17864156
60	0xbedf46e3	-0.4360877
61	0xbd57bd4e	-0.05267077
62	0xbc303e64	-0.010757063
63	0x3d7e6cfa	0.062115647
64	0x3dfee4c0	0.12445974
65	0x3e48b0cc	0.19598693
66	0xbea783b8	-0.3271768
67	0x3e4848cf	0.19559024
68	0xbec314ed	-0.38101903
69	0x3e9256cb	0.28581843
70	0xbf10cef0	-0.5656576
71	0xbe9197f0	-0.28436232
72	0x3e54d5ab	0.20784633
73	0xbd86a3c4	-0.065742046
74	0xbe8e7503	-0.27823648
75	0x3daca79d	0.08430407
76	0xbe70524c	-0.23468894
77	0x3f1ef9e0	0.6210003
78	0xbdc8e388	-0.09809023
79	0xbf21ea59	-0.6324821
80	0x3dd40c53	0.10353913
81	0xbde20acb	-0.11037215
82	0xbdb4c8cc	-0.088273615
83	0xbabcee8e	-0.0014414357
84	0x3d5e1438	0.0542185
85	0xbd81533b	-0.06314703
86	0xbec58cca	-0.38583976
87	0x3ec53bca	0.38522178
88	0xbd3c84a7	-0.046024945
89	0x3cca4d36	0.02469502
90	0xbe1535d6	-0.14571318
91	0xbeb2291d	-0.34796992
92	0xbe9810f0	-0.29700422
93	0x3e33a7a6	0.17544422
94	0xbe47d3c0	-0.1951437
95	0xbe1e2cea	-0.15446821
96	0xbe464897	-0.19363628
97	0xbe5eea1e	-0.21768996
98	0xbf2a94eb	-0.6663348
99	0xbe888baa	-0.26669055
100	0x3e124cba	0.14287081
101	0xbec31333	-0.38100585
102	0x3ea70a9d	0.32625285
103	0xbe8989b8	-0.26862884
104	0xbd834b64	-0.06410864
105	0x3e2dedea	0.16985288
106	0xbd31a236	-0.043367587
107	0xbc905b32	-0.01762161
108	0x3e001f35	0.12511905
109	0x3d0550e0	0.03254783
110	0xbf690881	-0.910286
111	0x3d0a3dcc	0.03375034
112	0xbf1b1ac2	-0.60587704
113	0xbe6c0672	-0.23049334
114	0x3cfa97f5	0.030590037
115	0xbcd9aa0b	-0.02657034
116	0xbf18f952	-0.5975543
117	0x3f2691b4	0.65066075
118	0xbe5722f2	-0.21009424
119	0x3e47f899	0.19528426
120	0xbea2244c	-0.31668317
121	0x3ef424a0	0.47684193
122	0xbe02fb87	-0.12791263
123	0x3e907e1d	0.28221217
124	0x3eacd584	0.3375665
125	0xbe8b0a62	-0.2715636
126	0xbd13f77f	-0.036124703
127	0x3d233a11	0.0398503
128	0xbf2ac6d6	-0.6670965
129	0x3dbee3ce	0.09320794
130	0xbe29f293	-0.16596441
131	0x3e9a4d2c	0.30137002
132	0x3dbc1452	0.09183563
133	0xbe1db6c2	-0.15401748
134	0xbd71d991	-0.059045378
135	0xbeb27451	-0.34854367
136	0x3db16196	0.08661191
137	0x3d9d9339	0.07694096
138	0x3e3bf55f	0.1835532
139	0xbe3ce742	-0.18447593
140	0xbc8d7d99	-0.017271804
141	0x3d10936d	0.035296846
142	0xbeea0c77	-0.45712635
143	0xbf0768bc	-0.52894187
144	0xbe750274	-0.23926717
145	0xbe5ed5e5	-0.21761282
146	0xbe82f0e0	-0.25574398
147	0xbe75ede9	-0.24016537
148	0xbe44e255	-0.19226964
149	0x3cac5f12	0.021041427
150	0xbf19e552	-0.6011554
151	0xbec68284	-0.3877145
152	0x3e8706c6	0.26372355
153	0xbe71500f	-0.23565696
154	0xbe3c5505	-0.18391807
155	0x3ea77e6c	0.3271364
156	0xbe9f3073	-0.3109165
157	0xbe58debb	-0.21178715
158	0xbdd84d8e	-0.105616674
159	0x3d1b0f2d	0.03785627
160	0xbe10bc11	-0.14134242
161	0xbebac2b1	-0.36476663
162	0xbe061080	-0.13092232
163	0x3e307bea	0.1723477
164	0xbe469121	-0.193913
165	0x3e435963	0.19077067
166	0xbe759857	-0.23983894
167	0x3ec8efd6	0.3924548
168	0xbd9af6ff	-0.07566642
169	0x3d814672	0.063122645
170	0xbe4c066a	-0.19924322
171	0x3e1afdc1	0.15135862
172	0xbc43d994	-0.01195373
173	0x3d975c98	0.07390708
174	0x3c70f627	0.014707125
175	0xbed82caa	-0.42221576
176	0xbcae9e30	-0.021315664
177	0xbd6dcd87	-0.058057334
178	0xbeb8d4b7	-0.3609979
179	0xbe91ba89	-0.28462628
180	0xbdf93197	-0.12167662
181	0x3e28c73c	0.16482252
182	0xbefbf24b	-0.49208292
183	0x3e5d3196	0.21600947
184	0xbe7db0de	-0.247745
185	0xbe65d89d	-0.22445913
186	0xbeb71fd8	-0.35766482
187	0xbdb60159	-0.08886976
188	0x3e15d010	0.14630151
189	0xbf03758b	-0.5135123
190	0xbec911f7	-0.3927152
191	0x3e5abd87	0.21361361
192	0x3ecc536b	0.39907393
193	0xbeb0cdd2	-0.34532028
194	0x3e3cabd8	0.18424928
195	0xbe1bd784	-0.15218931
196	0x3e51e9af	0.204993
197	0x3d999869	0.07499773
198	0xbde90464	-0.113777906
199	0xbf364b87	-0.71208996
200	0x3e129aa0	0.14316797
201	0xbeb21fc6	-0.34789866
202	0xbec7a05c	-0.38989532
203	0x3d040a3d	0.032236326
204	0xbd57e81d	-0.052711595
205	0x3e231f65	0.15929945
206	0x3ede8392	0.43459755
207	0xbd883709	-0.06651122
208	0xbe87b2f3	-0.26503715
209	0x3dbc6ff9	0.092010446
210	0xbe7fa7c6	-0.24966344
211	0xbf078c28	-0.52948236
212	0xbd525558	-0.05135092
213	0xbf05b048	-0.5222211
214	0xbdb81bf5	-0.089897074
215	0xbd256012	-0.040374823
216	0x3d51a5b4	0.051183417
217	0x3e0c397c	0.13693804
218	0x3dba4014	0.09094253
219	0x3dd33988	0.103137076
220	0xbcfda39c	-0.030961804
221	0x3b5dc7d4	0.003384103
222	0x3e88bd79	0.26707056
223	0xbf3b4995	-0.7315915
224	0x3e63978e	0.22225782
225	0x3da3a3d2	0.079902306
226	0xbd61d0fa	-0.055130936
227	0xbe22447a	-0.15846434
228	0xbe050c8d	-0.12993069
229	0x3e18fcda	0.14940205
230	0x3e80e0b9	0.2517145
231	0xbdfbc814	-0.12294021
232	0xbe39b0f7	-0.18133913
233	0x3ec0ee99	0.37682036
234	0x3e1ba04f	0.15197872
235	0x3e333c61	0.17503501
236	0xbe4ba2c3	-0.19886307
237	0xbe72e0b9	-0.23718537
238	0xbdd93f4e	-0.106077775
239	0xbd8f4f7e	-0.06997584
240	0x3eaa2b8c	0.3323635
241	0x3dd13bd1	0.10216487
242	0xbd35268c	-0.044226214
243	0x3d9087f0	0.07057178
244	0xbd5be22e	-0.0536825
245	0xbe7d99ec	-0.24765748
246	0x3cb51a6c	0.022107325
247	0xbeb37426	-0.35049552
248	0x3e8fd2e3	0.2809058
249	0xbe136fc1	-0.143981
250	0x3ea74856	0.32672375
251	0x3baa42c6	0.0051959483
252	0xbe7dd6ef	-0.24789022
253	0x3e5084d4	0.2036317
254	0x3e5b0fbd	0.21392722
255	0x3eba7ab0	0.36421728

mlp.4.bias f4 [32]
0	0x3daed2cb	0.08536299
1	0xbdd34f25	-0.1031783
2	0x3e075c53	0.13218813
3	0xbe7ab884	-0.2448445
4	0x3dbebe61	0.09313656
5	0x3dd8dd72	0.10589112
6	0xbd470f70	-0.048598707
7	0xbe1fda99	-0.15610732
8	0x3de9a25b	0.1140792
9	0x3c2d1c0f	0.010565772
10	0xbd480031	-0.048828308
11	0xbc3ae4a4	-0.011407051
12	0x3d7a6808	0.06113437
13	0xbe7273cb	-0.23676984
14	0xb97e9712	-0.00024279606
15	0xbe4f2440	-0.20228672
16	0x3c8df23b	0.017327419
17	0xbeb475de	-0.35246176
18	0xbe52f4ec	-0.20601243
19	0x3dc3df6f	0.09564101
20	0x3d1e22bc	0.038607344
21	0xbd6f67c3	-0.058448564
22	0xbdcd6180	-0.10028362
23	0xbd24a8ae	-0.040199928
24	0x3d798df7	0.060926404
25	0x3e3c7226	0.18402919
26	0xbe8c9259	-0.27455404
27	0x3e378246	0.17920789
28	0xbe1c801d	-0.15283246
29	0xbd0126c0	-0.031531096
30	0xbe74ac95	-0.2389396
31	0x3da092ae	0.07840477

mlp.6.weight f4 [32, 32]
0	0xbe60998f	-0.21933578
1	0xbe3acb86	-0.182417
2	0x3ea00d17	0.31259987
3	0xbe146d10	-0.14494729
4	0xbc54803d	-0.0129700275
5	0x3cb75ac0	0.02238214
6	0xbdfc45dc	-0.12318012
7	0xbc863bbd	-0.016385907
8	0x3ebb0f18	0.36534953
9	0x3e623e71	0.22094132
10	0xbf2c8b22	-0.673998
11	0xbe89c7da	-0.26910287
12	0xbe8439a5	-0.2582523
13	0x3e3e5d6e	0.18590328
14	0xbec9ef9c	-0.3944062
15	0xbb6cb177	-0.003611652
16	0xbcde59d3	-0.02714244
17	0x3df04ca0	0.11733365
18	0xbf40eda3	-0.75362605
19	0xbeaa3962	-0.33246905
20	0x3f3867b2	0.72033226
21	0x3e0309fb	0.12796776
22	0xbf042dae	-0.516322
23	0x3e478c10	0.19487023
24	0xbe167ce8	-0.14696085
25	0xbed42184	-0.4143182
26	0x3e11a102	0.14221576
27	0xbf0765d3	-0.52889746
28	0x3d02a053	0.03189118
29	0x3e85c76f	0.26128718
30	0xbdd1bd2f	-0.10241162
31	0x3f07c31d	0.53032094
32	0x3d1abf73	0.037780236
33	0xbe4131d6	-0.18866667
34	0x3d9e50e3	0.07730272
35	0x3e47d628	0.19515288
36	0x3eb1a71a	0.346978
37	0x3e8efb6f	0.27926204
38	0x3d0d81e0	0.034547687
39	0xbef11cca	-0.47092277
40	0xbeb938ac	-0.3617605
41	0xbe256241	-0.16150762
42	0x3c558df9	0.013034337
43	0xbd039aa5	-0.032129902
44	0x3e1e96f6	0.15487275
45	0x3d91d5ad	0.071208335
46	0xbe7a3533	-0.24434356
47	0x3ce22985	0.027607689
48	0xbeafd957	-0.34345505
49	0x3dcba427	0.09943419
50	0xbe86a98f	-0.26301238
51	0xbdd2a78f	-0.102858655
52	0xbeeb1c41	-0.45919994
53	0x3f02cae0	0.5109081
54	0xbebb3b46	-0.3656866
55	0xbe3f776a	-0.18697897
56	0xbe280c47	-0.16410933
57	0xbcc8d7fa	-0.024517048
58	0x3df7ead9	0.121053405
59	0x3e8ec527	0.2788479
60	0x3e805dd1	0.25071576
61	0xbe2f0f21	-0.17095615
62	0x3e73db6f	0.23814176
63	0x3e88651a	0.26639634
64	0x3d5b1f53	0.05349667
65	0x3e6ae1d6	0.22937712
66	0x3e9e39a8	0.30903363
67	0xbf0341ad	-0.5127209
68	0x3e00e976	0.12589058
69	0xbed4e380	-0.4157982
70	0x3eae17b4	0.3400246
71	0xbe36f0ea	-0.17865339
72	0xbde893bc	-0.11356303
73	0x3e3f0f91	0.18658282
74	0x3ce1dc77	0.027570946
75	0x3ea41d44	0.32053578
76	0xbef79f0f	-0.4836354
77	0xbe8034b4	-0.2504021
78	0x3d0441d1	0.03228933
79	0xbc15f75f	-0.009153216
80	0x3e82445a	0.25442773
81	0xbbc074ac	-0.0058732834
82	0xbea0aa04	-0.31379712
83	0xbe833800	-0.25628662
84	0x3de9b5b8	0.11411613
85	0xbe88de1b	-0.26731953
86	0xbf30fe56	-0.69138086
87	0xbf381b4b	-0.71916646
88	0x3bca49c4	0.0061733443
89	0xbe92f42a	-0.28701907
90	0xbe4df854	-0.20114261
91	0x3e073368	0.13203204
92	0xbcf34c19	-0.029699372
93	0xbb96a419	-0.0045971987
94	0x3d48e1c7	0.049043443
95	0x3e9ff537	0.31241772
96	0xbe30abce	-0.17253038
97	0x3ecb130b	0.39662966
98	0x3c999e2f	0.018752186
99	0xbcbf0730	-0.023318857
100	0x3dba4a48	0.09096199
101	0x3d8e07cc	0.06935081
102	0xbe97c991	-0.2964597
103	0x3df6d82f	0.120529525
104	0x3e8ac219	0.2710121
105	0xbb64fc97	-0.0034940594
106	0x3d1e27b5	0.038612086
107	0xbf311467	-0.69171757
108	0xbe424913	-0.18973188
109	0x3e9781e4	0.29591286
110	0xbe69fad0	-0.22849584
111	0x3e562eaa	0.20916238
112	0x3e0ea4b0	0.13930011
113	0xbee4d368	-0.4469254
114	0xbc9505df	-0.018191276
115	0x3e513a54	0.20432407
116	0x3dfe92e0	0.12430358
117	0xbe501706	-0.20321283
118	0x3ed60903	0.4180375
119	0xbe9bb5b6	-0.30412072
120	0xbe8226d2	-0.25420243
121	0xbe76b2e9	-0.24091686
122	0xbd293872	-0.041313596
123	0xbd8495ba	-0.064738706
124	0xbe06060b	-0.13088243
125	0xbef94bfe	-0.4869079
126	0x3e32ac4e	0.17448542
127	0xbdf32632	-0.118725196
128	0x3ddb4b9f	0.10707783
129	0xbd81bf19	-0.06335277
130	0xbdc1e8b4	-0.09468213
131	0xbf2d5157	-0.6770224
132	0xbf142937	-0.5787539
133	0xbdceb289	-0.10092647
134	0x3e912a23	0.2835246
135	0xbdf05de2	-0.11736657
136	0x3e01592e	0.12631676
137	0x3e8fce6e	0.2808718
138	0xbd8a0123	-0.06738498
139	0xbeda4d85	-0.42637268
140	0x3de6baee	0.11266123
141	0xbdff901a	-0.12478657
142	0xbd9b56b6	-0.07584898
143	0x3cb8cace	0.022557642
144	0x3ca7e055	0.020492712
145	0x3c4a14e2	0.01233408
146	0x3cf25808	0.029582992
147	0xbf1bec7c	-0.6090772
148	0xbe73b912	-0.23801067
149	0x3e581734	0.21102601
150	0x3e031071	0.1279924
151	0xbeba38e6	-0.36371535
152	0xbce7afd6	-0.028282087
153	0xbd911eda	-0.070859626
154	0x3d19e0fc	0.037568077
155	0x3e92ffcf	0.2871079
156	0xbea768fa	-0.32697278
157	0x3e795246	0.24347791
158	0xbf2dede7	-0.67941135
159	0xbe48cf17	-0.19610249
160	0xbd843f51	-0.06457389
161	0xbea13fbd	-0.3149394
162	0xbf30c300	-0.69047546
163	0xbdc41f10	-0.09576237
164	0xbeef77c4	-0.4677106
165	0xbe727fe1	-0.23681594
166	0xbe8b4173	-0.2719837
167	0x3d7702b4	0.060305312
168	0xbe948ecf	-0.29015204
169	0x3cd65569	0.026163774
170	0xbe9a5f71	-0.3015094
171	0x3e59b790	0.2126143
172	0x3e95fe08	0.29295373
173	0xbee70d20	-0.451272
174	0xbdc91fa2	-0.098204866
175	0x3e81774f	0.25286338
176	0xbf06ea3e	-0.52701175
177	0xbe278c18	-0.16362035
178	0x3c7c1901	0.015386821
179	0xbe6b6348	-0.22987092
180	0xbe89ea5c	-0.26936615
181	0x3d2260bb	0.03964303
182	0x3e3ff7cc	0.18746871
183	0x3d88a6d5	0.06672446
184	0xbf5e3c9a	-0.8681122
185	0x3e8dc8ae	0.2769217
186	0xbeb7d57f	-0.35905072
187	0x3d32580c	0.043541
188	0xbe139641	-0.14412786
189	0x3da834f8	0.08213228
190	0x3dde33c7	0.108497195
191	0x3ea8b9dc	0.329543
192	0xbebcaba7	-0.3684971
193	0x3d44c5cc	0.048040196
194	0xbe6aa286	-0.2291356
195	0xbe833fa4	-0.2563449
196	0x3ea73c55	0.32663217
197	0x3cc52f5b	0.024070432
198	0x3e785403	0.24250798
199	0xbe7110d6	-0.23541579
200	0xbc444f09	-0.011981734
201	0xbeb17f23	-0.3466731
202	0x3e9adf17	0.3024833
203	0xbeab32b9	-0.33437136
204	0x3d369fad	0.044585872
205	0x3e010cbd	0.12602516
206	0xbe9952ac	-0.29945886
207	0xbb0a908c	-0.0021143286
208	0x3c64495d	0.013933507
209	0x3e6e6121	0.23279239
210	0x3e4aec37	0.19816671
211	0xbd8325e3	-0.06403711
212	0x3dd03aae	0.10167442
213	0xbd959877	-0.07304471
214	0xbbb62924	-0.0055591036
215	0x3d26f751	0.040763203
216	0x3bc23f99	0.0059279916
217	0xbeddfbc5	-0.43356147
218	0xbec2ce4e	-0.38048023
219	0xbec4826e	-0.3838076
220	0xbde38500	-0.11109352
221	0xbe0af252	-0.13569
222	0x3e0f0cb1	0.13969685
223	0xbeceb5dc	-0.40373123
224	0x3d891dcf	0.06695139
225	0xbf020603	-0.50790423
226	0xbd7fe998	-0.06247863
227	0xbdd57a7f	-0.10423755
228	0xbda4e022	-0.080505624
229	0xbe213f31	-0.15746762
230	0xbe6ef775	-0.23336585
231	0xbee9c39a	-0.45657045
232	0xbd21afba	-0.039474227
233	0x3ec43938	0.38324904
234	0xbe7f9a37	-0.24961172
235	0x3e5ab012	0.21356228
236	0x3e2cb260	0.1686492
237	0xbe7c0111	-0.24609782
238	0xbe80528e	-0.25062984
239	0x3d980d00	0.074243546
240	0x3e7a2568	0.24428332
241	0x3e0c6c8a	0.1371328
242	0xbc1f89f0	-0.009737477
243	0xbe4588a8	-0.19290411
244	0xbe2748cf	-0.16336368
245	0xbea7df68	-0.32787633
246	0x3de1e0ff	0.11029243
247	0xbdcefcaa	-0.101067856
248	0x3e9f8bfc	0.31161487
249	0x3ea96dbe	0.3309154
250	0x3d30cbbb	0.043163043
251	0xbf02c1bd	-0.5107687
252	0xbe5e0bc3	-0.21684174
253	0xbf0f8e94	-0.5607693
254	0xbe2b5204	-0.16730505
255	0xbe4a4109	-0.19751371

mlp.6.bias f4 [32]
0	0xbd8fe44f	-0.07025968
1	0xbd1f4f68	-0.038894087
2	0x3e2a43fe	0.166275
3	0xbe1fb291	-0.15595461
4	0x3e036181	0.12830164
5	0xbc9b8a9d	-0.018986994
6	0xbdc6f6b2	-0.09715022
7	0xbd0a791e	-0.033806913
8	0x3c8e5ab6	0.017377239
9	0xbdc3e1b5	-0.095645346
10	0xbe377733	-0.17916565
11	0x3de6db91	0.11272348
12	0xbd7fc79b	-0.062446218
13	0x3de9a01e	0.11407493
14	0xbe4e8d08	-0.20170987
15	0x3ddcac7a	0.10775085
16	0x3dbe0b6c	0.09279522
17	0xbebfcb13	-0.3745962
18	0xbd4bcd97	-0.049756613
19	0xbdc78568	-0.09742242
20	0x3b8a4193	0.004219243
21	0xbdd9b167	-0.1062954
22	0xbd9241a5	-0.07141427
23	0xbd80eef6	-0.06295578
24	0xbe56483e	-0.20925996
25	0x3dd2d59b	0.10294648
26	0x3e920b69	0.2852433
27	0x3ceb6a3a	0.028737176
28	0x3e2beccc	0.1678955
29	0x3dcaf201	0.0990944
30	0xbe117818	-0.14205968
31	0x3e13bcac	0.14427441

mlp.8.weight f4 [14, 32]
0	0x3dc6737f	0.09689998
1	0x3e1a288f	0.15054534
2	0x3e1e348e	0.15449736
3	0xbeb3607c	-0.3503455
4	0x3e2fc374	0.17164403
5	0x3ec2b985	0.38032165
6	0xbf0a7cfe	-0.5409697
7	0xbeccc377	-0.39992878
8	0xbe7162dc	-0.23572868
9	0xbeb5b690	-0.35490847
10	0xbc8b874a	-0.017032284
11	0xbe8f64ab	-0.2800649
12	0x3edebfda	0.43505746
13	0xbe1be839	-0.15225305
14	0x3e289c0e	0.1646578
15	0xbdbddd65	-0.09270743
16	0x3e53e013	0.20690946
17	0xbde76316	-0.11298196
18	0xbe6c874c	-0.23098487
19	0x3eb72c0d	0.35775796
20	0x3de5e54e	0.11225377
21	0xbea45aca	-0.32100517
22	0x3dab5685	0.08366112
23	0xbeaf0e28	-0.34190488
24	0x3e0098df	0.12558316
25	0xbea7d794	-0.3278166
26	0x3eebdc9c	0.4606675
27	0x3d1454fb	0.036213856
28	0xbd993327	-0.0748046
29	0x3e3c909f	0.18414544
30	0x3eb2eed5	0.3494784
31	0xbe876402	-0.26443487
32	0x3d728d80	0.059216976
33	0xbe01b9e6	-0.12668571
34	0xbdb379b1	-0.08763445
35	0x3e09ac18	0.13444555
36	0x3f23b9ad	0.63955194
37	0x3ca7a05e	0.020462211
38	0xbe8766d6	-0.26445645
39	0x3e84e6d1	0.2595735
40	0xbefcc8be	-0.49371904
41	0x3e275ae2	0.16343263
42	0x3e411426	0.18855342
43	0x3ba9c1f8	0.0051805936
44	0x3dd662fc	0.104680985
45	0xbeb67d54	-0.35642493
46	0x3d94d4ab	0.07267126
47	0xbf019d6f	-0.5063085
48	0xbec04dc4	-0.3755933
49	0xbe1dd8f7	-0.15414797
50	0xbf66db00	-0.9017792
51	0xbdcf1c76	-0.1011285
52	0x3d1b73d8	0.037952274
53	0x3e6dbc9f	0.23216484
54	0xbeab39ea	-0.33442622
55	0xbd11d878	-0.03560683
56	0x3d4a583d	0.049400557
57	0x3e0cd0e6	0.13751563
58	0xbed1fe10	-0.41014147
59	0x3ad91c3e	0.0016564203
60	0xbee0c2f7	-0.43898746
61	0x3e103eca	0.14086452
62	0x3f1469e1	0.5797406
63	0xbe577afc	-0.21043009
64	0xbf178812	-0.59192
65	0x3e3b7f7a	0.18310347
66	0xbec3375c	-0.38128173
67	0xbc6afb6b	-0.014342169
68	0x3c331a41	0.010931552
69	0x3d821c0b	0.06353005
70	0xbdd0e2ff	-0.10199546
71	0x3e772919	0.24136771
72	0xbdbb8c60	-0.09157634
73	0x3ea2addf	0.31773278
74	0xbe0b462a	-0.13600984
75	0xbf0421e5	-0.5161422
76	0xbf1c6c4d	-0.61102754
77	0xbeb9a2af	-0.3625693
78	0x3e74efad	0.23919554
79	0xbe330549	-0.17482485
80	0xbe22bb8a	-0.15891853
81	0xbd9c5861	-0.076340444
82	0x3de58782	0.11207487
83	0x3e425f91	0.18981768
84	0x3ee9e6f3	0.45684013
85	0xbd82b734	-0.063825995
86	0xbd6ba130	-0.057526767
87	0x3e9cd351	0.30629972
88	0xbc887fd6	-0.01666252
89	0xbe53f71e	-0.20699736
90	0xbcffa64d	-0.031207228
91	0x3ece048d	0.40237847
92	0xbe2e0120	-0.16992617
93	0x3ecb1e74	0.3967167
94	0x3e268f1e	0.16265532
95	0x3dcea73f	0.100904934
96	0xbd194ea9	-0.03742853
97	0xbea5e921	-0.32404426
98	0x3cae2381	0.021257164
99	0x3eb91039	0.3614519
100	0xbe27acaf	-0.16374467
101	0xbcd654ed	-0.026163543
102	0xbea04838	-0.313051
103	0xbebb5622	-0.36589152
104	0xbe1f1d01	-0.15538408
105	0x3eb0596a	0.34443218
106	0xbf063a4c	-0.52432704
107	0xbed10a7b	-0.40828308
108	0x3e05d28b	0.13068597
109	0x3ec50762	0.38482195
110	0x3d57b398	0.05266151
111	0xbe8af3c0	-0.27139091
112	0x3d9aa193	0.07550349
113	0x3d58f428	0.05296722
114	0x3dbf013a	0.09326406
115	0x3e78f205	0.24311073
116	0xbef52118	-0.4787681
117	0xbe361ca3	-0.17784362
118	0xbd68e745	-0.05686118
119	0xbed52a07	-0.41633627
120	0x3eaf6bdd	0.3426198
121	0xbd0e5349	-0.034747396
122	0xbeff0fec	-0.49816835
123	0xbe3e5d7e	-0.18590352
124	0x3d03fa9d	0.032221425
125	0x3e72e37a	0.23719588
126	0xbe3fb2b0	-0.18720508
127	0xbd7252cc	-0.059160993
128	0x3d912ed8	0.07089013
129	0x3e5b11f9	0.21393575
130	0x3eacd7db	0.33758435
131	0x3c5414a2	0.012944372
132	0x3cfe8c6a	0.031072814
133	0xbf2a4a29	-0.6651941
134	0xbe0f5599	-0.13997497
135	0xbef7c0d8	-0.48389316
136	0x3da254b5	0.07926313
137	0x3dc82aad	0.09773765
138	0xbeaa4b15	-0.33260408
139	0x3cfc4bd9	0.030797886
140	0xbe9348ef	-0.2876658
141	0xbe177ab8	-0.14792907
142	0xbc5e5610	-0.013570324
143	0x3ebb351e	0.36563963
144	0x3dafee34	0.085903555
145	0x3d99eedd	0.07516263
146	0xbe29469d	-0.16530843
147	0x3e84476b	0.25835738
148	0x3e626e1a	0.22112313
149	0x3e89ad73	0.26890144
150	0xbe1d032d	-0.15333243
151	0xbd8429f0	-0.064533114
152	0xbe2ee186	-0.17078218
153	0xbe3557b9	-0.17709245
154	0x3eb320bb	0.3498591
155	0x3e9d7b61	0.30758193
156	0x3e45e9d0	0.19327474
157	0x3e75cd61	0.24004127
158	0x3cd5a21e	0.02607828
159	0x3f0ebc11	0.55755717
160	0xbdebca04	-0.11513141
161	0xbdc9c341	-0.09851695
162	0xbe624c40	-0.220994
163	0x3dad4737	0.08460849
164	0x3ea845dc	0.32865798
165	0x3e1f6d36	0.15569004
166	0x3ebc1343	0.36733446
167	0xbf382ffa	-0.71948206
168	0x3e22e582	0.15907863
169	0x3e938ea3	0.2881976
170	0x3cbd6a5d	0.023122007
171	0x3cd46890	0.025928766
172	0xbe865d61	-0.26243117
173	0x3dccf8be	0.10008381
174	0x3e020b26	0.12699565
175	0x3e1b3d98	0.15160215
176	0x3f0b559a	0.5442749
177	0x3cc3aeaf	0.023887007
178	0xbd7c080f	-0.061531123
179	0x3ea4d257	0.32191727
180	0xbe05f55a	-0.13081875
181	0x3e539553	0.20662431
182	0xbe8ba8da	-0.2727726
183	0x3ed9e295	0.4255568
184	0x3d839416	0.064247295
185	0x3eaab3a0	0.33340168
186	0x3e909a6f	0.28242823
187	0x3e4f2a83	0.2023106
188	0xbd2aab6c	-0.041667387
189	0xbf0756c2	-0.52866757
190	0xbc9bab61	-0.019002618
191	0xbe13f04b	-0.14447133
192	0xbe63a4ae	-0.22230789
193	0x3ec01793	0.37517986
194	0xbdb3a185	-0.08771042
195	0xbc9e7e0b	-0.019347211
196	0xbf0032d0	-0.50077534
197	0x3b5b703c	0.0033483645
198	0x3c88c550	0.016695648
199	0x3cd21e7f	0.025649307
200	0x3ed0265e	0.40654272
201	0xbd179ae0	-0.037012935
202	0xbe160526	-0.14650401
203	0x3e3a72e4	0.1820789
204	0x3d4ab57d	0.049489487
205	0xbe8a8dac	-0.27061212
206	0x3d1b09b1	0.03785104
207	0xbd89a1fb	-0.067203484
208	0x3e759b97	0.23985134
209	0x3cada4bb	0.021196714
210	0x3dee2e62	0.116299406
211	0xbdae8ec8	-0.08523327
212	0xbd545276	-0.051836453
213	0xbdf99cf7	-0.12188142
214	0xbe8a3099	-0.26990202
215	0x3e008b82	0.12553218
216	0x3e626a04	0.22110754
217	0x3e233555	0.15938313
218	0xbe7aad52	-0.24480179
219	0x3ba716d5	0.0050991573
220	0xbdc8c81c	-0.09803793
221	0x3de14b51	0.110006936
222	0x3e4fca2d	0.20291968
223	0x3d8f218c	0.069888204
224	0xbdaff294	-0.0859119
225	0xbddd361c	-0.10801336
226	0xbe57b5e9	-0.21065487
227	0xbe0beaa8	-0.13663733
228	0xbdfe52ab	-0.124181114
229	0xbe6b5281	-0.22980691
230	0xbdd2160f	-0.102581136
231	0x3ca217b0	0.019786686
232	0x3d52ea9d	0.051493276
233	0x3e438595	0.19093926
234	0x3e777fb5	0.2416981
235	0xbe92decc	-0.28685606
236	0x3e34b74b	0.17648046
237	0x3c48c4b9	0.012253934
238	0x3e44180a	0.19149795
239	0xbc7b0ade	-0.015322415
240	0x3d32d472	0.043659635
241	0x3e2891e1	0.16461898
242	0x3e29613e	0.16541001
243	0xbd657be6	-0.056026362
244	0x3d00ed03	0.031476032
245	0x3e24fbd9	0.16111697
246	0xbe5a6932	-0.21329191
247	0xbe1eee1c	-0.15520519
248	0xbd7a1f5e	-0.06106507
249	0xbe9e2506	-0.30887622
250	0xbdb31964	-0.08745077
251	0xbdc0d4d0	-0.09415591
252	0xbe241e35	-0.16027148
253	0xbdf793a1	-0.12088705
254	0x3e02d025	0.12774713
255	0x3d834c9a	0.06411095

mlp.8.bias f4 [14]
0	0x3d4661e8	0.048433214
1	0xbe3b480b	-0.18289201
2	0xbdac2d89	-0.08407123
3	0xbcb59eea	-0.022170503
4	0x3e12c8c6	0.14334401
5	0x3d0254b9	0.03181908
6	0xbd6f3062	-0.05839575
7	0xbda6fd5d	-0.08153794
8	0xbe3138c7	-0.17306815
9	0xbe81368a	-0.25236923
10	0xbe311f17	-0.17297016
11	0xbe866198	-0.26246333
12	0x3d18506d	0.037186075
13	0xbeeed09b	-0.46643528
