mujoco_playground/_src/manipulation/airbot_play/onnx/airbot_play_policy.onnx (onnx, 24452 bytes, 12 tensors)

obs_mean f4 [50]
000000 5e 23 25 3d f6 8f 20 bf b9 fc 07 3f 36 f2 c4 3f
       0.040316932 -0.62719667 0.5312 1.5386417
000010 ea 3d 76 bf 9f df c8 bf f7 66 ae 3c a8 94 ae 3c
       -0.96188223 -1.5693244 0.021289332 0.02131112
000020 a5 75 98 3c 86 b7 ff bd 52 e3 14 3d 84 66 83 bc
       0.018610785 -0.12486176 0.036349602 -0.016040094
000030 59 f1 94 bd 56 9d ec 39 91 c4 f5 3b fa 3b f6 3b
       -0.07272596 0.00045130652 0.007500239 0.007514474
000040 87 a3 81 3e 9e a7 55 3b 37 c6 cc 3d 38 8e 79 3f
       0.25320074 0.0032601128 0.09998744 0.97482634
000050 01 2e 3b 3d c2 60 bf bb c1 d8 dc bc a3 63 f9 3e
       0.04569817 -0.005840392 -0.026958825 0.4870883
000060 be 10 57 bf ff 14 3f 3c 4e d8 77 3f fd 81 94 3c
       -0.8400992 0.011662721 0.9681443 0.01812839
000070 5f bf f0 3b f3 e4 9b bc 14 3b 77 3f 98 63 44 b9
       0.007347032 -0.01903007 0.9657452 -0.00018729118
000080 07 93 06 b9 d3 22 43 bc 90 3f 35 bb 7c f5 42 bb
       -0.00012834008 -0.011910158 -0.0027656294 -0.002974837
000090 9a f9 a7 3d 94 14 01 3d 44 38 33 3c d9 51 1b 3c
       0.082019046 0.031513765 0.010938708 0.009479963
0000a0 ff 14 3f bc 88 7b 02 3d fd 81 94 bc 8f a9 ad 3b
       -0.011662721 0.03185609 -0.01812839 0.005299754
0000b0 5c 03 13 bc 8f b8 26 3c 4f 50 1c ba a3 73 12 bb
       -0.008972969 0.010175838 -0.00059628946 -0.0022346757
0000c0 0a 19 12 b8 20 d7 f1 bb
       -3.4832432e-05 -0.007380381

obs_std f4 [50]
000000 c8 6e 97 3e 52 7a 73 3e 05 b8 8f 3e 05 b2 33 3e
       0.29576707 0.2377713 0.28070083 0.17548378
000010 47 13 c0 3e af bf 94 3e 15 e4 20 3c b8 53 20 3c
       0.37514707 0.29052493 0.009820004 0.009785585
000020 04 99 b6 3e bd 33 1d 3f 51 d0 04 3f ed ee f6 3e
       0.35663617 0.6140707 0.51880366 0.4822916
000030 b1 d3 1c 3f db 0f 1a 3f cb 96 c8 3d 8c 7b c8 3d
       0.61260515 0.60180444 0.097943865 0.0978919
000040 2a 1f 71 3d 09 2f 57 3d 02 be 9b 3d 65 41 c5 3d
       0.05886761 0.05253509 0.076046005 0.09631614
000050 f7 98 0f 3e 8e b0 db 3d 61 9c d6 3d 66 bd 20 3e
       0.14023195 0.107270345 0.10479046 0.1569725
000060 3f d6 ed 3d 02 84 d2 3d 37 3f 2f 3e fa c8 fc 3d
       0.1161313 0.10279085 0.17113958 0.12343021
000070 ea 8e f0 3d 84 da fe 3d a3 d1 32 3e 95 f6 95 3c
       0.11746009 0.12444022 0.17462783 0.018306056
000080 c5 e6 72 3c 21 c6 0a 3d 09 f8 7f 3d 7f 36 62 3d
       0.014825528 0.033880357 0.062492404 0.055227753
000090 a3 12 9c 3d 26 5c 32 3e 73 d5 cf 3d e0 b5 f2 3d
       0.07620742 0.17417964 0.10148134 0.11851096
0000a0 02 84 d2 3d 37 3f 2f 3e fa c8 fc 3d d7 b9 65 3d
       0.10279085 0.17113958 0.12343021 0.056085434
0000b0 9f 5f 96 3d 38 68 41 3d 96 ee ca 3c 25 71 2c 3d
       0.07342457 0.04721853 0.02477197 0.04210009
0000c0 ff 1c af 3c 24 4f 48 3c
       0.021376131 0.0122259

mlp.0.weight f4 [32, 50]
000000 94 ca 90 3d f1 96 71 3e 3e f4 c7 bc 28 2f 23 3e
       0.07069889 0.23592736 -0.024408456 0.15935957
000010 fb df 8b be 72 88 02 bd b4 c8 ff be b3 e9 14 bf
       -0.2731932 -0.031868406 -0.49957812 -0.58169097
000020 37 30 52 3e 3c 35 ae 3e 3e f9 bf 3e 26 7a 14 3e
       0.20526205 0.3402499 0.37494844 0.14499721
000030 16 28 b0 3d fa 1c 09 be d9 dc b9 bd 81 af 56 bc
       0.08601396 -0.1338996 -0.090753265 -0.013103367
000040 5f d5 63 3e d5 df ae 3d fb 5b 24 3e 8b d3 f9 3e
       0.22249363 0.08538786 0.16050713 0.48794207
000050 c5 af db 3e b1 66 6a bd 15 23 3d be 0e 2d 02 3d
       0.4290754 -0.05722684 -0.18470414 0.03178125
000060 e9 05 3d be 47 80 f5 3e a1 3d 9d 3d f3 8e 51 3e
       -0.18459286 0.4794943 0.076777704 0.20464687
000070 d1 11 c5 3e 9c b2 36 3e cd a2 e7 3e c3 23 5f bd
       0.38490155 0.17841572 0.45241395 -0.054477464
000080 22 70 75 be 72 1d 22 3f 2e c6 b0 3e 96 d4 6d bf
       -0.23968557 0.6332618 0.345262 -0.92902505
000090 77 23 46 bf b2 35 81 bf a9 88 f8 3e 7c 97 50 3e
       -0.77397865 -1.0094512 0.48541763 0.20370287
0000a0 fa b0 6a be 37 21 b5 be 0d fd 74 3e ac 39 47 bd
       -0.22919074 -0.35376903 0.23924656 -0.048638985
0000b0 ec 6d 02 3d a0 6d 50 bc 1f 80 9b 3e 04 57 2d be
       0.03184311 -0.012721449 0.30371186 -0.16927725
0000c0 48 95 28 be 95 58 fb bc 55 51 bc 3d cd d6 58 be
       -0.16463196 -0.030681888 0.091952 -0.2117569
0000d0 f0 47 00 3e 03 78 2c bd 78 10 a6 bc 12 02 60 be
       0.12527442 -0.04210664 -0.020271525 -0.2187579
0000e0 03 32 c4 3d 1a 8a a4 3e 36 47 66 bd d6 1c 20 be
       0.095798515 0.32136613 -0.056220256 -0.15636
0000f0 84 7a 81 be 44 e8 d6 bd 6f 02 85 be 64 0a 30 bd
       -0.25288785 -0.1049352 -0.2597842 -0.04297866
000100 47 96 8d bd ff cb 1d 3e 8b 17 3c be 7a f5 31 bd
       -0.06913429 0.1540985 -0.18368356 -0.043446995
000110 0b 44 c7 be 6f 8a ad 3e b3 63 07 3e f5 9e 91 3d
       -0.389191 0.3389468 0.13221626 0.07110397
000120 17 a0 77 3b 14 db 18 3d 02 aa 77 3e 7e ad d8 3d
       0.003778463 0.037318304 0.24185947 0.10579966
000130 56 53 0b 3f d0 45 a2 3e a5 6d 92 3d 1c a9 15 3e
       0.54424036 0.31693888 0.07149819 0.14615291
000140 f5 00 1d 3e 20 41 ce 3f 75 07 8d 3f 66 18 4d bf
       0.15332396 1.6113625 1.1017901 -0.80115354
000150 2b 78 b3 be a1 87 43 3d 8a 96 b6 3e 49 5e aa bd
       -0.35052618 0.047736768 0.35661727 -0.08318765
000160 f2 85 1a 3d 7f 09 9e 3d 65 3c 97 3b 85 89 b5 be
       0.037725396 0.07716655 0.004615354 -0.35456482
000170 0d e9 4e be 34 4c 3c bd 2e f6 77 be d4 17 0a bf
       -0.2020609 -0.04597111 -0.24215004 -0.5394261
000180 48 0c 80 be b6 c7 5b bf 6d 2a 1d bd 27 0d 19 3d
       -0.2500937 -0.8585161 -0.03837054 0.03736606
000190 a3 3c b5 3d 1c 2a 5d 3d e2 6c 28 3d 12 60 55 3d
       0.08849456 0.053995237 0.041119464 0.052093573
0001a0 fd ff 09 be f9 d1 00 3e ad 44 30 bf 6b 61 11 bf
       -0.13476558 0.12580098 -0.6885479 -0.56789273
0001b0 f6 5c 57 bd 7f 3b 10 bd bd 5d d9 3d 4e b0 45 3d
       -0.05257889 -0.03521299 0.10613582 0.04826384
0001c0 d6 34 66 3d d6 15 84 bd 8a 9e 24 bd 45 c5 39 be
       0.056202732 -0.064494774 -0.040190257 -0.18141659
0001d0 b3 e5 2e 3e 2b 5e 95 3d 69 ca 2c 3e f3 08 a0 be
       0.17079811 0.07293352 0.16874088 -0.31256828
0001e0 76 2e 6f 3d d7 dc 1b be 45 f0 9a 3a 70 17 43 bb
       0.058393918 -0.15220962 0.0011820873 -0.0029768609
0001f0 eb dc e9 3b f6 18 86 3e 1c 14 2d 3f 30 52 b8 be
       0.007136931 0.2619092 0.6760881 -0.36000204
000200 cf 36 00 be f4 be 1e 3d 5b 0a 32 3f 5a 39 b6 be
       -0.12520908 0.038756326 0.6954705 -0.3559063
000210 eb 1f bb be 59 ce 8e be 6d ec 40 3d 45 74 0b be
       -0.3654779 -0.27891806 0.047100473 -0.13618572
000220 19 36 25 3f bf 8e 27 bf fa 81 32 3e 95 57 66 be
       0.6453567 -0.6545219 0.17432395 -0.22494347
000230 af f3 1d 3e 81 34 0d bf 39 a9 0b 3e 37 65 ad bc
       0.15424989 -0.5515824 0.13638772 -0.021166427
000240 05 0d e8 be 40 51 38 3d b4 84 b4 3d ba ff c7 bc
       -0.45322433 0.04499936 0.088143736 -0.024413932
000250 43 20 26 bd e7 08 6a bf e4 ae 64 be 10 97 b3 bd
       -0.04055811 -0.91419834 -0.2233234 -0.08769047
000260 4f 5c 03 3e 33 c4 47 3d f1 10 d3 bd 68 37 04 be
       0.12828182 0.048771095 -0.10305966 -0.12911761
000270 08 d8 09 3f 62 a3 51 3e 29 6c 3b 3e fa a5 68 3d
       0.5384526 0.20472482 0.18302979 0.056798913
000280 6f fb 95 bd f1 85 24 bd 83 08 28 3e c2 0a 7a bd
       -0.07323348 -0.0401668 0.16409497 -0.061045416
000290 27 09 f4 3d e3 36 c2 3d eb 10 57 3d 13 0d 00 be
       0.11915808 0.09483125 0.05250637 -0.12504987
0002a0 da ef 6f be 84 55 1d 3f 9d b4 82 3c 60 ba cb 3e
       -0.2343134 0.6145861 0.015955264 0.3979063
0002b0 f5 4e 91 3e a0 e4 3b bd 6e 47 53 be e7 3f d0 3e
       0.28380552 -0.04587233 -0.20632717 0.40673754
0002c0 e5 db ba be 5d 7a 93 bd 0a 08 73 3e a4 a9 db 3d
       -0.3649589 -0.07201073 0.23733535 0.10725716
0002d0 fe 5a 33 be e7 26 5f bd 55 70 0b bf 2b b7 99 3e
       -0.1751518 -0.05448046 -0.5446828 0.3002256
0002e0 4b 77 44 be c0 6e 84 be 2a d8 5b be b5 be e1 be
       -0.19186132 -0.25865746 -0.21469179 -0.4409081
0002f0 60 6d 23 3e 6f 10 52 be b4 bb fb be c1 7b a9 3e
       0.15959692 -0.20514081 -0.49166644 0.3310223
000300 53 a9 34 be bd 5f 83 be 36 85 68 be 43 15 0a 3f
       -0.17642717 -0.2565898 -0.22707066 0.5393869
000310 63 51 b9 3d 08 05 d8 be 78 3c 0b ba 4f b1 01 be
       0.090487264 -0.4219134 -0.000531144 -0.12665294
000320 0b e4 92 3d 41 e2 45 3e 72 9d a7 bd 61 e8 5b be
       0.07172402 0.1932459 -0.08184327 -0.21475364
000330 af 06 4d bb cf 72 6d be 16 12 82 3e 99 26 0c 3f
       -0.0031284501 -0.23188327 0.25404423 0.54746395
000340 03 2c 56 bb 99 97 7a 3c 7a 59 c9 3d 78 4f 4b be
       -0.0032680042 0.015294933 0.098315194 -0.19854534
000350 36 80 2b 3e f2 2c 09 be ed db 5e 3e 9a 95 dc 3d
       0.16748127 -0.13396052 0.21763583 0.10770722
000360 3c c5 ed 3d 3e 23 d4 3e 31 a6 d1 3e 74 27 59 3f
       0.11609885 0.41433138 0.40947106 0.84825826
000370 06 23 3b 3f 20 cf 8b 38 14 5c 0d be 31 bf 85 be
       0.73100317 6.6666165e-05 -0.13804656 -0.2612243
000380 50 59 1a be ef d1 dd bd b6 d3 de 3d 00 71 1d 3e
       -0.15073133 -0.10831057 0.108802244 0.15375137
000390 5d e7 d2 3d b7 e6 58 3d 53 6e b6 3e 4f 50 a0 3d
       0.10298035 0.0529544 0.35631046 0.07827818
0003a0 a9 3e 31 3e e0 b1 50 bf 61 55 3c bb b4 5b 88 3e
       0.17309059 -0.81521416 -0.0028737413 0.26632464
0003b0 68 43 02 3f 35 32 87 bd ba bc 91 be 8d 51 95 3e
       0.50884104 -0.06601373 -0.284643 0.2916378
0003c0 48 5c 82 3e c2 d4 b7 be 48 44 13 be 9a 54 53 3e
       0.2546103 -0.3590451 -0.14381516 0.20637742
0003d0 32 0c 2f 3f 8c 77 09 3f b4 ef 2d be c1 bf d9 bc
       0.68377984 0.5369804 -0.1698597 -0.026580693
0003e0 2e fb e5 bd 48 15 a8 3e 59 6b 8b 3e 75 69 18 bd
       -0.11229549 0.32828736 0.27230337 -0.037209947
0003f0 11 82 47 be 27 ac a2 3d a4 12 25 3e 88 b1 69 be
       -0.1948321 0.07942992 0.16120392 -0.22821629

mlp.0.bias f4 [32]
000000 dc c1 7d be 6e 6e d6 3e e0 d8 47 be b9 60 a1 be
       -0.24780983 0.41881126 -0.19516325 -0.31519106
000010 a2 8f 5f 3e a0 f7 9e be fb 34 92 bf d0 cb 53 be
       0.21832135 -0.31048298 -1.1422418 -0.20683217
000020 25 8c 01 3f 78 77 35 bf 0d 09 3f bf f6 7b 02 bf
       0.5060447 -0.7088542 -0.74623185 -0.509704
000030 57 18 65 bf 48 31 cd be c3 ce f7 3d a1 0e fc bd
       -0.89490265 -0.4007666 0.120999835 -0.12307478
000040 a3 df df be 1a 04 ca bf 79 e7 71 be a2 40 23 3d
       -0.4372531 -1.5782502 -0.23623456 0.03985656
000050 8c 28 ed be 93 ac 4c bf ac e9 29 bf b5 51 cd bc
       -0.46319997 -0.7995083 -0.6637218 -0.025063375
000060 ef 07 e4 bd 5d 95 8e be a4 54 93 be 81 ab 55 bf
       -0.11134326 -0.2784833 -0.28775513 -0.8346482
000070 b9 99 6a bf 6d a9 34 be 34 95 33 bf c5 58 61 be
       -0.9164081 -0.17642756 -0.7014954 -0.22006519

mlp.2.weight f4 [32, 32]
000000 4f a9 b1 3d 1e 2e 07 be 06 d5 79 be 6d 70 84 3e
       0.08674871 -0.13201186 -0.24397668 0.25867024
000010 69 6f ea be b1 59 e3 3d 16 16 79 3e 4b e3 68 3e
       -0.45788124 0.11101092 0.24324831 0.22742955
000020 05 b1 c6 be 0d b4 27 be fa 00 42 3e 99 8e 70 3e
       -0.3880693 -0.16377278 0.18945685 0.23491897
000030 10 f1 b6 be a4 2e 0b 3f 96 b1 93 3e dd fe bc 3c
       -0.3573079 0.5436804 0.28846425 0.023070747
000040 27 e7 13 3e 5b d9 3c 3e 43 0f c4 3d c1 d8 b8 bd
       0.14443646 0.1844229 0.095732234 -0.090257175
000050 b7 da 09 3e ea 4a 50 be 1e 39 9f 3d 2b 7f 82 3d
       0.1346234 -0.20341077 0.07774566 0.063719116
000060 ba 8e eb be ad 9a c8 bd e8 fc 23 bf 26 c9 87 bf
       -0.4600733 -0.09795127 -0.6405778 -1.0608261
000070 17 f4 63 be 11 5a 0a bf 01 17 9b be 6b b3 2f bd
       -0.22261082 -0.5404368 -0.30290988 -0.042895716
000080 98 7b e8 3d d1 21 92 bd aa a9 c5 3d ad a5 4f bd
       0.11351699 -0.07135356 0.096515015 -0.05069511
000090 b6 32 b4 bd ea b8 23 3f f2 02 45 be e5 58 a0 3e
       -0.08798735 0.6395403 -0.19239405 0.3131782
0000a0 26 c4 02 3d 20 6c a5 be a0 b8 13 be ae 2f ba 3d
       0.031925343 -0.32309055 -0.14425898 0.090911254
0000b0 07 2c 7a 3e e8 f1 b9 3d 89 4a 04 bf 51 4f a1 3d
       0.24430858 0.09079343 -0.5167623 0.078764565
0000c0 44 9f 95 bd 57 8f ac 3e 73 04 3c bd 64 8e 82 3e
       -0.07305768 0.3370311 -0.04590268 0.2549926
0000d0 c4 2b de be b6 73 90 3e 8d 89 cb 3e fc 23 8b 3e
       -0.43392766 0.2821328 0.3975338 0.2717589
0000e0 eb 39 e4 be 00 2c a6 3d cd de 95 3d 1d bb e7 bd
       -0.44575438 0.08113861 0.073178865 -0.11314986
0000f0 6c 5f ab 3e 57 f8 1a bf a1 ea 10 bf c0 02 bc be
       0.3347124 -0.60535187 -0.56608015 -0.36720848
000100 e4 b5 38 be 27 db 11 bf 2b 9f 57 3d a2 3e ba bd
       -0.18038136 -0.56975025 0.05264203 -0.090939775
000110 9c df 45 bd c1 e5 8d bf c2 51 43 3e 2b 9a 97 be
       -0.048308954 -1.108574 0.19074157 -0.29609808
000120 c7 76 99 be b5 8a 55 3e 07 30 4b 3e 1f 4d 68 bf
       -0.29973432 0.20853694 0.1984254 -0.9074268
000130 10 75 9a bc 79 b8 69 be d4 08 7e be cc 13 c0 3e
       -0.018854648 -0.22824277 -0.24808055 0.37515104
000140 03 24 4d 3e 7c 9f 01 3e 37 4a af be 43 c9 02 bf
       0.20033269 0.12658495 -0.3423631 -0.5108835
000150 4d a2 be bc c3 02 ab be 17 5c 7d 3e 27 af 80 3d
       -0.02327075 -0.33400545 0.2474216 0.06283408
000160 09 df 86 be 5a c5 d9 3c f3 70 9c bd 27 2d 1e 3e
       -0.26342037 0.026583362 -0.07638731 0.15446912
000170 e6 d9 bf 3e 04 84 00 bf 5d b1 f5 bd 12 91 c7 3e
       0.3747093 -0.5020144 -0.1199672 0.38977867
000180 e1 e1 9e 3e 74 33 e0 bd 95 8b 65 3d aa ea 79 3e
       0.31031707 -0.10947314 0.05604132 0.24405923
000190 1f 64 75 3e 03 07 ed 3c c2 7d 8c bb d3 8a 4c 3d
       0.23963974 0.028934008 -0.0042874524 0.04993708
0001a0 95 ef 51 3e d0 3c 89 bd 91 95 b7 bd 9c c7 81 be
       0.2050155 -0.06701052 -0.089640744 -0.25347602
0001b0 83 ff 67 be 69 b8 08 bf 57 b5 6b bf 01 d2 46 3d
       -0.22656064 -0.5340639 -0.9207358 0.04854012
0001c0 cd c7 88 3d 25 aa 92 be a8 42 16 3e 32 90 81 3d
       0.06678734 -0.28645435 0.14673865 0.06326331
0001d0 b2 56 26 be 91 12 ed 3e 2d da 8c 3d 7c 51 ae 3e
       -0.16244009 0.46303228 0.06877551 0.34046543
0001e0 2c b9 37 3e cf 05 9d bd 54 e3 9f be f0 0a d6 bd
       0.17941731 -0.076671235 -0.31228125 -0.10451305
0001f0 5a 56 c0 3e c1 5c c0 3d 71 66 11 3e d5 d5 f6 3d
       0.3756588 0.093926914 0.14199235 0.12052504
000200 a6 db 83 bf e3 3b e8 3d 3a 99 59 bf a8 2a 34 be
       -1.0301406 0.113395475 -0.8499943 -0.17594397
000210 3a ea e4 3d be cd e6 3c 30 b4 1b be 06 25 e7 bc
       0.11177488 0.028174277 -0.15205455 -0.028215896
000220 33 72 0b be 64 bc f6 bd 10 d6 22 be be 21 d3 3d
       -0.13617782 -0.120476514 -0.15901971 0.1030917
000230 1f 04 ca 3c 24 a6 25 3e 97 39 2f 3e 4c 08 25 bf
       0.024660168 0.16176659 0.17111813 -0.64465785
000240 d8 cd a7 3e 1b b5 0c bf 5d 9f 13 be 39 9b 84 be
       0.32774234 -0.54963845 -0.14416261 -0.25899675
000250 74 9f 71 be 64 92 b4 be 27 c9 72 be 77 ee bf bd
       -0.23595983 -0.35267937 -0.23709546 -0.093716554
000260 80 0e 88 3e 39 80 b7 bd 89 6f 32 be 7a c7 0c bf
       0.26573563 -0.089600034 -0.1742536 -0.5499188
000270 80 8d 87 be 6a b4 24 be fa 19 2f 3e ec 33 aa 3e
       -0.26475143 -0.16084448 0.17099753 0.33242738
000280 88 9f 10 3e a4 31 ec 3b e9 6e 44 bf f7 0a 1a be
       0.14123356 0.007208066 -0.76731735 -0.15043245
000290 76 29 52 3e 11 38 bb bd fb 8d c9 3d c6 b8 44 3e
       0.20523629 -0.09141553 0.09841534 0.1921111
0002a0 7c ec 07 3e 01 1d fe 3d 0e a8 ef be e3 90 0a bc
       0.13273805 0.12407876 -0.46807903 -0.008457395
0002b0 f0 7d 5a be f9 ed 10 3e fb 7a ce bd 99 d7 79 3e
       -0.21337104 0.1415328 -0.100820504 0.2439865
0002c0 81 e6 b8 be e5 93 b4 be 20 a8 45 3d 05 14 10 bf
       -0.3611336 -0.35269085 0.04825604 -0.5628055
0002d0 7a b7 94 3e a3 37 1b be 97 a5 f8 bd a4 35 04 3f
       0.29046232 -0.15157942 -0.12140959 0.5164435
0002e0 d3 e3 c8 3d c2 d2 39 bd 56 63 0f 3d 6f 2a fd be
       0.09809079 -0.04536701 0.035006844 -0.49446437
0002f0 22 41 17 3e 72 0a bc 3c ab 51 ba 3c 42 6a 84 3e
       0.1477094 0.0229542 0.02274402 0.25862318
000300 d8 54 12 bf f0 4b f7 3d eb ff 00 be 58 c0 bd bd
       -0.5716071 0.12075031 -0.12597625 -0.09265202
000310 70 d3 d4 bc 83 ac 79 be 62 bc 92 3e ad 89 db bd
       -0.025979728 -0.24382214 0.2865935 -0.10719619
000320 28 e8 43 bf 8d 50 80 be 4d 07 2f be 89 48 d4 bd
       -0.7652612 -0.25061455 -0.17092629 -0.103653975
000330 bf 8b 99 be e6 15 f1 3d 28 ba 2f 3e a5 54 c0 3e
       -0.2998943 0.11771755 0.17160857 0.3756458
000340 29 0d 9d 3e f1 c6 0e bc e3 b4 98 bd 98 c4 a0 be
       0.30674103 -0.0087144235 -0.074563764 -0.3139999
000350 58 39 0c 3e cd 7a bc be 71 a8 65 be 56 b1 ca 3d
       0.1369375 -0.3681244 -0.22427537 0.098971054
000360 c2 c5 a7 bd eb 59 64 bd 2c 55 fb 3e 5f 1c 30 bd
       -0.08192016 -0.055749815 0.49088418 -0.042995807
000370 5c a3 d2 3e 61 cd 91 3d 38 2b 0c be 18 44 b6 3e
       0.41140258 0.07119251 -0.13688362 0.35598826
000380 bb 82 31 bf 6d 2f 0b bf 80 89 2b 3e 56 82 86 bc
       -0.69340104 -0.5436924 0.16751671 -0.01641957
000390 0d 3e 4c be 3d e7 11 be 55 73 55 3e 86 46 04 3d
       -0.19945545 -0.14248367 0.20844777 0.03229382
0003a0 ba 9a c2 3d d4 e7 56 be ee 5d 0f 3e 7b 47 f6 bd
       0.09502168 -0.20986873 0.14000675 -0.120253526
0003b0 ae 60 bd be 77 5f 48 bb 54 f4 23 be 62 4b 01 3e
       -0.36987823 -0.003057448 -0.16011173 0.12626413
0003c0 fe dd 7f 3e 92 f4 21 3e ff 85 4c be e2 fc 80 be
       0.24987027 0.15815952 -0.1997299 -0.25192934
0003d0 f0 95 52 bf a0 77 87 bf a6 f1 39 3d 80 81 f5 3d
       -0.82260036 -1.0583382 0.04539647 0.11987591
0003e0 ec 72 1d bf fb f3 d0 bd 92 8e 0c 3e 15 1c 63 be
       -0.6150348 -0.102027856 0.13726261 -0.22178681
0003f0 9f cd a4 be 93 c6 0e 3e 98 f5 15 3e e9 a2 73 3e
       -0.32188126 0.13942938 0.14644468 0.23792614

mlp.2.bias f4 [32]
000000 4b a1 1a 3e 02 b4 26 bd d8 86 d2 bd 95 61 60 bd
       0.15100591 -0.040699013 -0.10279626 -0.05478056
000010 59 33 3f 3d a7 8e 52 3e 87 6f 83 be 08 6c 63 3e
       0.04667983 0.2056223 -0.25671026 0.2220918
000020 96 3a 64 bc 67 6c fc be 4a 3b 2c bf d2 1d 99 be
       -0.013929984 -0.49301454 -0.6727797 -0.29905564
000030 60 3a 9a 3e 54 0d 94 be 26 00 38 be 5f 30 8f 3d
       0.30122662 -0.2891642 -0.17968807 0.06991648
000040 02 67 7d be 70 f2 d4 be f2 21 5d 3e 26 d8 46 3d
       -0.24746326 -0.41591215 0.2159498 0.04854598
000050 6e 86 40 be a4 7f 60 3e 7e af 7f 3e f9 2e 8e 3d
       -0.18801281 0.21923691 0.24969289 0.06942553
000060 8a d8 56 be f2 c9 15 bf 7c 9e 75 be 5e 2c f8 3d
       -0.2098104 -0.5851127 -0.23986238 0.12117837
000070 68 b4 f7 3e 7d 19 70 3d 58 aa 22 be a6 67 ef be
       0.48379827 0.058618058 -0.15885293 -0.46758765

mlp.4.weight f4 [32, 32]
000000 8d d9 67 bf 91 9d 50 bd 5b 13 1e 3d 66 de 3a be
       -0.9056633 -0.050931517 0.038592678 -0.18248901
000010 00 37 c6 be bc 6b 9d bd 17 96 f2 3d fa ab 68 bd
       -0.38713837 -0.07686564 0.118450336 -0.056804635
000020 61 bd 58 be e6 76 b0 be 71 c9 d1 bd 1c aa 48 3e
       -0.21165992 -0.34465712 -0.102435 0.19596142
000030 19 08 95 3e 98 be ba be 2f c5 9c 3e d0 ce 84 be
       0.2910774 -0.36473536 0.3061919 -0.25939035
000040 9f be 9c be c4 57 5a bd 07 91 8f be 0e 57 77 3d
       -0.30614182 -0.053306356 -0.28040335 0.060385756
000050 b7 8f 0a 3e a4 81 e3 3d 4f 38 9f bd 7d 8d 6b be
       0.13531385 0.11108711 -0.07774412 -0.23003192
000060 73 9e 22 bf 55 f4 e6 be 5b ed 81 3e 2d aa 37 3e
       -0.63523024 -0.45108286 0.253764 0.1793601
000070 2a 53 53 3c 4a f4 d5 3e 94 5f 04 be 46 fe 9a 3d
       0.012898246 0.4178794 -0.12927085 0.0756803
000080 53 fa 7f 3e a2 56 32 be 2e 93 b9 3d a9 22 a9 3d
       0.24997835 -0.1741586 0.090612754 0.08258564
000090 7b a4 d7 3e 6a 90 bb bd 35 44 f5 be c1 03 e5 bd
       0.42117676 -0.09158404 -0.479036 -0.111823566
0000a0 f3 d5 88 3d a5 9a 15 3e 8e ff 3c bd 13 e4 24 3e
       0.066814326 0.14609773 -0.046142153 0.16102628
0000b0 d7 ec bb 3d 33 26 df be 8d 04 5d 3c 6f c4 e3 3e
       0.09176033 -0.4358383 0.0134898545 0.44485804
0000c0 c8 9f f4 bd f0 ca e7 3c 01 dc 47 3e 4f 8a 55 3c
       -0.11944538 0.02829501 0.19517519 0.013033464
0000d0 07 47 ae be ae fe d4 bd f4 5d c1 3c 89 49 87 3e
       -0.34038565 -0.10400139 0.02360437 0.2642329
0000e0 28 c1 88 3e f4 f6 81 3e fb 6d a4 be 6a 68 15 be
       0.26709867 0.25383723 -0.32115158 -0.14590612
0000f0 c0 5f c5 3c b2 7c cd bd 55 45 58 3e e2 13 c1 bd
       0.024093509 -0.10033549 0.21120198 -0.094276205
000100 3e fe 5f 3d 52 3b cb bd 75 a3 00 bf fd 0f 68 3e
       0.054685824 -0.09923424 -0.50249416 0.22662349
000110 47 0e 12 bf 20 e4 a2 3e 9a 9e 96 be 91 25 14 bf
       -0.57053035 0.3181467 -0.29417878 -0.5786982
000120 a5 24 2e 3d 1b 9f f1 be ef 45 19 3e 66 b8 c2 3d
       0.042515416 -0.471917 0.14968084 0.095078275
000130 02 0c dd bd ec 53 97 3e b2 1f 93 bd 9a aa d1 bc
       -0.10793306 0.29556215 -0.0718378 -0.025594044
000140 f2 40 83 3e 93 c5 e4 bd 97 97 ab 3d 56 83 8a 3e
       0.25635487 -0.11170497 0.08378523 0.27053326
000150 a5 7a b7 be 28 a5 95 bd 21 63 2a be 6c 00 14 3e
       -0.35835758 -0.07306892 -0.16639377 0.14453286
000160 f3 7e 74 be 99 24 72 3d cf b5 b1 3e f5 43 15 bf
       -0.23876552 0.059116933 0.3470902 -0.5830682
000170 f6 84 45 be 97 c4 aa 3e 96 34 db bd 14 8f 88 be
       -0.19289002 0.3335311 -0.10703389 -0.2667166
000180 56 48 22 bf bc 16 c3 be 97 a1 04 3f 00 82 15 bf
       -0.63391626 -0.38103282 0.51809067 -0.5840149
000190 f7 da 54 3d 6f af 9c 3e d3 d8 95 3e 4e d5 16 3c
       0.051966634 0.30602595 0.29266986 0.009206129
0001a0 c2 e1 44 bf b4 0c a3 bd eb 74 f2 be 6b 46 9e be
       -0.7690698 -0.07961407 -0.47354826 -0.309131
0001b0 05 7b 2c bf 33 d0 07 3f 25 d9 f8 be 20 26 06 bf
       -0.6737521 0.5305206 -0.48603168 -0.52401924
0001c0 99 39 c0 bd 25 ea 19 bf 79 e3 08 3e 1e 94 03 3e
       -0.09385986 -0.601229 0.13368024 0.12849471
0001d0 39 82 9e be e0 8f 6d bf 14 1f 9b be 11 ae 8c 3e
       -0.30958727 -0.9279766 -0.30297148 0.27476552
0001e0 20 9b f6 be 33 b6 0e 3f 43 16 09 bf 95 7a 7b bf
       -0.48165226 0.55746764 -0.53549594 -0.9823392
0001f0 64 e1 91 bd ff c4 8a be 5e 9c 81 bf fb 52 49 bc
       -0.07123068 -0.2710342 -1.0125844 -0.0122878505
000200 38 12 7f be a3 bf 1e be 0a 03 16 bf e3 a7 14 3e
       -0.24909294 -0.15502791 -0.5859839 0.14517169
000210 a5 82 0c bf d3 37 78 3e 9c 57 2b bf a7 d2 ef bd
       -0.5488685 0.24240045 -0.66930556 -0.117101006
000220 7d 33 d3 bd da 5d f7 3d f5 3a 99 3e 15 c9 f7 bd
       -0.10312555 0.12078448 0.29927793 -0.120989
000230 11 a4 61 bf 91 6b 85 be 3f 55 a2 bf bd 8a bf be
       -0.8814097 -0.2605863 -1.2682265 -0.37410536
000240 ad bf 27 3d fe 42 b3 be f2 d8 84 3e 74 b0 e9 be
       0.04095428 -0.35012048 0.25946766 -0.45642436
000250 31 7c 7e bd 39 40 00 3f 28 cb 70 bf 9c 48 1b be
       -0.062130157 0.50097996 -0.9405999 -0.15164417
000260 17 a2 ad be c2 29 f7 bc 03 78 24 be ce 7b 8c 3e
       -0.33912727 -0.030171279 -0.16061406 0.27438205
000270 17 43 a1 be 4f 8d a2 3e 18 97 f8 3c 3f bf 96 3c
       -0.31496498 0.31748435 0.030345485 0.01840174
000280 c1 58 77 3e 79 ac c4 bd 8c 4c 38 bf b5 f9 1d bf
       0.2415495 -0.09603209 -0.719918 -0.6170915
000290 ad 1e d7 3b 07 15 61 bd 8b 44 54 be 71 0d ef 3c
       0.006564936 -0.054951694 -0.20729272 0.029181214
0002a0 ec 29 91 bd 56 ba 91 3c 11 42 51 bd c9 78 12 be
       -0.07088074 0.017789047 -0.051088396 -0.14303888
0002b0 00 de bd bd 05 65 2f be 9b f9 ab 3d b2 a6 64 be
       -0.09270859 -0.1712838 0.08397218 -0.22329214
0002c0 3d 5d f7 be 9f 3e e6 be e0 ba 26 bf 41 ca e6 3d
       -0.48313323 -0.4496965 -0.651289 0.112690456
0002d0 a9 01 8d bd d0 b5 0c 3f d0 95 1a be 8c f3 17 3d
       -0.06885082 0.54964924 -0.15096211 0.0370975
0002e0 6b 46 63 be 67 0e bc 3e 9f 6c 90 be 95 dd df be
       -0.22194831 0.36729738 -0.2820787 -0.4372374
0002f0 7a 27 c8 be d1 e0 97 3e fc ce 6a bd 3e 19 51 3d
       -0.39092618 0.2966371 -0.057326302 0.051049463
000300 97 60 fe 3d a9 75 2f bf 5a 05 43 3f 4e c1 01 bf
       0.12420767 -0.6853891 0.7618004 -0.50685585
000310 30 9c ae be c8 d1 94 3c ee e0 af be 6f 1b 8c be
       -0.34103537 0.018166438 -0.34351295 -0.2736468
000320 c1 b9 b6 3d 71 d8 3c be bd aa e4 3d 84 c9 85 be
       0.089221485 -0.18441941 0.11165378 -0.26130307
000330 db 99 01 bf 6e 26 00 3f 5e 8d fb bb 7b 87 42 be
       -0.5062539 0.5005864 -0.0076767644 -0.18996994
000340 60 96 15 bf d8 bd 65 be 5a 82 0f 3f 57 aa e9 be
       -0.5843258 -0.22435701 0.56058276 -0.4563777
000350 0e 7a 13 3e 83 ca 0e bf f9 3a a2 be 1c 51 db 3d
       0.14402029 -0.5577776 -0.31685618 0.1070883
000360 ca 3a c0 3d 49 e2 1e 3e b7 14 22 3e 54 b9 8e 3d
       0.09386213 0.15516008 0.15828215 0.06968942
000370 31 9e df 3e 48 ff 93 3e fb ad 11 bf da f6 a9 be
       0.43675378 0.28905702 -0.569061 -0.33196145
000380 74 51 a9 3e 4f f2 7c 3e 5b a3 51 bd 5d b2 f0 be
       0.33069956 0.24701808 -0.05118118 -0.4701108
000390 f2 ae 01 3a d6 88 a1 3e 14 43 77 3e 82 ed 24 be
       0.00049470284 0.3154971 0.24146682 -0.16106227
0003a0 27 e3 fd be b8 72 3c be 5e b9 c4 bc 65 87 22 bd
       -0.49587366 -0.18403137 -0.024014171 -0.039679904
0003b0 38 07 0c bf 78 c9 e2 be 19 67 d2 bd ea 90 9b bd
       -0.54698515 -0.44294333 -0.102735706 -0.075959995
0003c0 91 d0 4b 3d 26 67 1c 3e 2a 1e 08 be c6 c8 17 3e
       0.04975945 0.15273723 -0.13292757 0.14822683
0003d0 fc 28 10 3e 8b 83 77 3e 12 e9 71 3e a6 cb d0 be
       0.14078134 0.24171273 0.23624066 -0.4078037
0003e0 49 93 2c 3e 60 94 88 be 4b 39 c4 bc 8d 4e 49 3e
       0.1685306 -0.266757 -0.0239531 0.19658871
0003f0 c7 0f 0a bd 07 e8 f5 3c 9c b9 2d 3d 56 dd 63 3e
       -0.033706453 0.030017866 0.04241334 0.22252402

mlp.4.bias f4 [32]
000000 85 ee 9f bd 9f 3b dd bb b4 f7 1d 3e e7 0b 2e be
       -0.07809166 -0.006751492 0.15426522 -0.16996728
000010 d9 88 13 3e 29 a7 66 3e 68 b7 9a be ae fc 79 3d
       0.14407672 0.22524704 -0.30218053 0.06103199
000020 37 53 49 3e f1 03 d1 be ba b3 e6 3d 3a bb a5 be
       0.1966065 -0.4082332 0.11264749 -0.32369405
000030 4b 51 a8 be 38 aa 58 be 60 da 53 3e 64 90 c8 be
       -0.32874522 -0.21158683 0.20688772 -0.3917266
000040 fa 80 2f be 80 09 c2 be 41 b6 1f bd ab 44 83 3d
       -0.17139044 -0.37897873 -0.03899217 0.06409582
000050 0d aa 2b 3d 69 3f 91 bd c8 d0 a5 be 5e d8 f8 3b
       0.04191022 -0.07092173 -0.3238585 0.0075941524
000060 aa f2 7b be 36 ea 42 be d8 19 66 3d b3 30 a3 3c
       -0.24604288 -0.19034657 0.05617699 0.019920683
000070 d0 56 de bc af 4f 08 be 73 2f 81 3e 7a 6a b4 be
       -0.027141005 -0.13311647 0.25231513 -0.35237485

mlp.6.weight f4 [32, 32]
000000 f7 18 67 be 4f 37 0b bf 62 6e d1 bd 24 da 04 bf
       -0.22568117 -0.5438127 -0.10226132 -0.51895356
000010 05 85 72 bd 55 a1 e4 3e 36 3a f1 3e 07 29 fc 3d
       -0.05920889 0.44654337 0.47114724 0.12312513
000020 dc 22 24 be 73 a0 59 bd 65 a2 8a bf 0e 42 2e bf
       -0.16028923 -0.053131532 -1.0830809 -0.6806954
000030 fc 51 d5 be 36 67 72 3e b2 40 66 3e 03 e8 8f bd
       -0.41664112 0.23672184 0.22485617 -0.070266746
000040 28 1e 7a be e7 5b 9d bd b3 1f 7a bf 97 2f 5c bf
       -0.24425566 -0.076835446 -0.9770462 -0.86010116
000050 97 52 4e be ba 4b 0f be b0 19 64 bf e7 44 33 3e
       -0.20148693 -0.13993731 -0.89101696 0.17506753
000060 69 b0 bc bf 3e 9c ae bb bf fa 28 be 14 04 3c 3c
       -1.4741336 -0.005328684 -0.16501902 0.011475582
000070 04 29 80 3d 2a 66 b2 3e ca 01 d5 3e fe 57 97 3e
       0.06257823 0.3484357 0.41602927 0.2955932
000080 67 27 05 be de 1d 70 3d 05 ba ef bd d7 ab 49 be
       -0.13003312 0.058622234 -0.11705402 -0.19694458
000090 1e 43 63 3e e7 d4 a7 3d 43 2e c9 3e 0b 0b 04 be
       0.22193572 0.08194905 0.39293107 -0.12894838
0000a0 00 2b d1 bd 85 da 7f 3d dc d2 bb 3e 5f e0 40 3e
       -0.1021328 0.062464256 0.3668431 0.18835591
0000b0 00 5d ab 3d a9 11 43 bf bb 42 26 3e 15 f1 dc be
       0.08367348 -0.7619882 0.16236393 -0.4315268
0000c0 59 21 91 be cd 28 35 be 3a ce 21 bf 3b 32 c3 be
       -0.28345755 -0.17691346 -0.632053 -0.3812426
0000d0 53 53 4e bf b1 30 1a 3e c7 d3 ab be 9b e7 a6 3d
       -0.8059589 0.15057637 -0.3356001 0.08149644
0000e0 2a b7 ba bd e5 56 68 3e 1e ed 4c be 9c 2a a4 3e
       -0.09116967 0.22689398 -0.20012328 0.32063758
0000f0 63 68 c6 3c 19 f3 bc be 6b 9f 84 3e cb 9f e0 3e
       0.024219697 -0.3690422 0.25902876 0.43871912
000100 9b 10 1a 3d 14 c1 82 3d 1d 7a 8a 3e 80 b8 18 bf
       0.037613492 0.06384483 0.2704629 -0.59656525
000110 5d 3d 34 3e 7b 34 44 be bd 3d 95 3e 03 13 07 3e
       0.17601533 -0.19160645 0.29148665 0.13190846
000120 46 42 49 3e 30 f7 5d 3e d5 28 44 bd f1 72 d0 3d
       0.19654188 0.21676326 -0.047890503 0.10178173
000130 9e 98 1f be 21 81 f3 bd a6 07 5b be 28 50 d9 be
       -0.15585563 -0.11889864 -0.21389636 -0.42443967
000140 aa e9 21 be 89 0a 8e 3e f8 b9 8f 3d 14 aa 50 3e
       -0.15811792 0.27742413 0.070178926 0.2037738
000150 44 92 65 bf 22 2b a7 bd d1 c9 f7 be bd 84 82 be
       -0.8967631 -0.08162524 -0.4839616 -0.25491896
000160 6c 2b 21 bd 1e 93 a4 be c3 79 dd 3d b4 6c 45 3e
       -0.03934805 -0.32143492 0.1081424 0.19279748
000170 b1 df 11 3d b2 9c 92 bd 8b 44 e7 be d6 68 4e be
       0.03561372 -0.071587935 -0.45169482 -0.20157179
000180 55 9f 67 be c6 d9 b7 3b 1b c9 19 3e 3c 09 49 bf
       -0.22619374 0.0056106774 0.15018122 -0.78529716
000190 4c a7 70 3d d4 ca 4f 3e 07 11 34 bf 9d da cd 3e
       0.058753297 0.20292217 -0.7033848 0.4020585
0001a0 f4 9e 37 3e 3d cc 48 3e ff cd 19 3e 70 7f 11 bf
       0.1793173 0.1960916 0.15019988 -0.5683508
0001b0 15 7b 17 bf c5 79 41 3e 13 fc 42 be 60 de 95 bc
       -0.59172183 0.18894108 -0.19041471 -0.018294513
0001c0 6e 2e ef bd 67 56 96 3d a9 aa 14 bf b3 6e 30 3e
       -0.11678778 0.07340699 -0.58072907 0.17229728
0001d0 1d 43 15 be a0 77 af 3c cd 59 4c 3d a9 f3 71 be
       -0.14576383 0.021419346 0.04989033 -0.23628105
0001e0 53 85 68 bd 73 03 5d be 6c a1 5b 3d a7 ae 35 be
       -0.056767773 -0.21583347 0.05362074 -0.17742406
0001f0 cf 6a 88 3d bf 2e da bd 3b fa ca 3e b1 0b d2 be
       0.06660997 -0.10653447 0.39644036 -0.41024545
000200 6c 6c 15 be 83 10 8b be f3 9b ac bc 59 17 32 bf
       -0.14592141 -0.27161035 -0.021070456 -0.69566876
000210 83 cb 85 3d d4 df 21 bf a7 f2 05 be 69 62 3a be
       0.065329574 -0.6323216 -0.13080846 -0.18201603
000220 f5 43 72 3e 28 04 19 be 1a 43 4a be 2b 39 18 bf
       0.23658736 -0.14942992 -0.1975216 -0.5946223
000230 4c 91 17 bf cb 87 83 be 67 98 cd bc b3 76 26 3e
       -0.5920608 -0.2568954 -0.025097085 0.16256218
000240 89 f1 bc bd bc eb 6c 3e ab 45 90 bd b3 40 26 3e
       -0.09225757 0.231368 -0.07044538 0.16235618
000250 c4 02 7e 3e 13 df 57 3e de de b7 3e 85 61 98 be
       0.24805743 0.2108119 0.35912222 -0.29761901
000260 0f 0d 35 be c4 bf 45 be f5 12 06 3f c4 8b 36 3e
       -0.17680763 -0.19311434 0.52372676 0.17826754
000270 fd f6 a6 be 81 6e 43 3e b2 60 a9 3d 31 6a 9e 3b
       -0.32610312 0.19085123 0.08270396 0.0048344363
000280 fa 57 85 be ec 2b 8c be ca ac 91 bf cf 1c 3e be
       -0.26043683 -0.2737726 -1.1380856 -0.18565677
000290 6a e4 02 bf e2 0a 8a be fc 21 20 3e 7e 12 4b 3d
       -0.5112978 -0.26961428 0.15637964 0.049578182
0002a0 e0 34 97 3e 08 b8 2a 3f 16 47 76 3c c0 41 17 be
       0.29532528 0.6668706 0.015031597 -0.14771175
0002b0 d2 38 03 bd 24 c8 9b be 27 23 03 be b2 a3 46 3d
       -0.03203661 -0.30426133 -0.12806378 0.048495956
0002c0 ef ec e0 be 26 25 00 be b8 e2 41 3d bd 08 a5 3d
       -0.43930766 -0.12514171 0.047335356 0.08058307
0002d0 4e 64 c8 3c 0f a6 f0 3e 76 a6 8a be 29 ba 1a 3e
       0.024461892 0.47001693 -0.27080125 0.15110077
0002e0 86 ca 96 3d 83 0e b8 3e 0c f9 ee 3d e1 c7 24 bc
       0.07362847 0.35948572 0.11668596 -0.0100574205
0002f0 e6 b5 2d be ae fa f7 bd 10 d5 82 bd 74 27 04 bf
       -0.1696392 -0.1210836 -0.06388295 -0.516227
000300 52 ee 35 3e 92 56 e0 3c e4 08 3e bf 48 7b c2 3e
       0.17766693 0.02738503 -0.74232316 0.3798468
000310 63 95 d5 be a0 9b 7b 3d 31 c4 b2 3e 19 e8 37 bd
       -0.41715536 0.061427712 0.34915307 -0.04489908
000320 02 f9 63 be 1e de c3 bd 04 1e cb 3e e9 46 32 be
       -0.22262958 -0.0956385 0.39671338 -0.17409863
000330 f3 85 22 be 0d 70 77 be 0c 1e ad bd 2a 49 23 3e
       -0.1587141 -0.24163838 -0.084529966 0.15945879
000340 87 74 76 be 62 63 b9 be 4f 75 aa 3d a4 19 85 be
       -0.24067889 -0.36208636 0.08323156 -0.25996125
000350 a6 83 f5 3d b0 47 12 be 74 31 c2 3e 9c c0 a7 bd
       0.119880006 -0.14285159 0.37928355 -0.08191034
000360 72 5e 09 3d 3c 19 7e 3d f6 7b e6 be 1c 61 1c bf
       0.033537336 0.062035784 -0.4501645 -0.6108568
000370 ca 18 1b be 3e f1 91 3e b8 f9 80 3e 76 ea 07 bf
       -0.15146175 0.28504366 0.2519052 -0.53092134
000380 e1 66 4a 3e be 04 3e 3e db d6 c2 3d 57 3c 18 be
       0.19765808 0.18556497 0.09513637 -0.14866768
000390 ff 15 ed bd e0 a3 99 bd 66 d0 08 be bc 70 31 bf
       -0.11576461 -0.0750196 -0.13360748 -0.69312644
0003a0 b6 c9 a5 bd 29 09 44 3e b2 8b 6a bd 48 1b d9 b7
       -0.08095114 0.1914412 -0.05726213 -2.588112e-05
0003b0 f0 a8 8f 3d 13 02 61 3e 69 69 db be e1 92 4d 3d
       0.07014644 0.21973448 -0.4285386 0.050188903
0003c0 f8 cf 61 bd ee d4 fa 3c b2 7c f3 bc 02 b8 0c bd
       -0.055129975 0.03061911 -0.029722545 -0.03435517
0003d0 20 1f fe 3d d0 f2 46 3d 62 2f 35 3e 1e 43 04 3e
       0.124082804 0.048571408 0.17693856 0.12916228
0003e0 9d 01 4b be 84 1c 66 3e 57 0b 57 bf 2b 3a 38 be
       -0.19824834 0.22471815 -0.8400168 -0.1799094
0003f0 f0 8a bf bd 85 05 dc 3d c4 8d a8 3e 48 8c 48 bc
       -0.09352672 0.1074324 0.3292066 -0.012240477

mlp.6.bias f4 [32]
000000 13 21 78 bd 40 e2 f7 3c 55 a3 29 3d 64 73 fb 3d
       -0.060578417 0.030259252 0.04141553 0.122778684
000010 07 5a be bd 0d 80 12 3d 09 04 f6 bd 7b 38 85 be
       -0.09294515 0.03576665 -0.120124884 -0.26019654
000020 3c 6c da 3d 4e 1f 1f be be 37 76 be 31 8b 6b 3d
       0.10665175 -0.15539286 -0.24044701 0.05750579
000030 e9 60 ab bd 16 af 4d 3e 27 ce f2 be 90 e9 80 be
       -0.083680935 0.20086321 -0.47422907 -0.25178194
000040 68 44 14 be 4d e1 fe 3c 4b ca 3a bd 31 50 69 be
       -0.1447922 0.031113291 -0.045603078 -0.22784497
000050 52 2b 69 be ac e0 59 be 6c ee f4 bd 44 c0 ff bd
       -0.22770432 -0.21277112 -0.11959538 -0.12487844
000060 cf fa de 3d c1 f2 cd bd 21 00 e0 3e b8 0a 33 be
       0.10887682 -0.10056067 0.43750098 -0.17484558
000070 87 c7 c1 3d be 4c 11 3e 8b 8c 00 bf a7 56 4b bc
       0.09461885 0.14189431 -0.5021445 -0.012410796

mlp.8.weight f4 [14, 32]
000000 31 03 40 3e 39 7c c1 bc 8f 53 99 3e c6 7e 15 3b
       0.18751217 -0.023618804 0.29946563 0.0022811159
000010 6f fd a6 3e 40 7d c1 3e f4 1f e0 be c3 41 d1 bd
       0.3261523 0.3779087 -0.43774378 -0.10217621
000020 ba 87 d6 bd 88 c3 ca be 75 f9 50 bd 32 ec e2 be
       -0.104751065 -0.39602304 -0.05101915 -0.44320828
000030 7f f9 c0 3e 65 91 1f bf 79 f6 90 3e bf a8 3e bc
       0.3769035 -0.6233123 0.28313044 -0.011636912
000040 38 13 e0 3d 11 c4 8e 3b 4b f8 fc be 26 49 8f 3e
       0.10941166 0.004356869 -0.49408183 0.27985495
000050 99 e1 c3 bc 54 80 56 be b0 01 8f 3d 5b 64 0b bf
       -0.023911284 -0.20947391 0.06982744 -0.54450005
000060 6d 09 10 3e 3d 46 2e be 71 43 cb 3e f0 83 7a bd
       0.14066096 -0.17018981 0.3969989 -0.06116098
000070 79 9a bf 3e 4a cc 16 3e 12 87 d9 bc b9 b5 94 bd
       0.3742254 0.14726368 -0.026553664 -0.07261223
000080 f5 86 db be 01 91 e1 bd 7f b7 a2 be 91 58 5a 3e
       -0.42876402 -0.110139854 -0.3178062 0.21322848
000090 23 75 26 3f 1d f9 40 bd 63 e1 0e be 59 80 c9 3d
       0.65022486 -0.047112573 -0.13953166 0.098389335
0000a0 e1 0b c0 be 74 1d f4 3e 4a d6 85 3e 82 a0 4c be
       -0.37509063 0.4767872 0.26140052 -0.19983104
0000b0 3f 11 95 be 4c f6 0d bf 75 0a 43 3e 54 f4 d0 3e
       -0.2911472 -0.55453944 0.19046958 0.40811408
0000c0 58 af 93 be c8 c6 d5 3c 82 4a 89 be 26 c3 c1 3e
       -0.28844714 0.026095763 -0.26814657 0.378442
0000d0 c5 29 6c be 08 fc 40 bd ed fc 39 bf 89 e1 d9 3e
       -0.23062809 -0.047115356 -0.7265156 0.42554882
0000e0 2d f4 94 be 56 68 74 bc b4 19 e1 be 44 26 43 3e
       -0.2909254 -0.014917454 -0.43964922 0.19057566
0000f0 a3 cc b2 3e c7 68 f4 3c ec 0b 4a 3e c7 1e 83 bd
       0.3492175 0.029835118 0.1973111 -0.06402355
000100 76 85 2e 3d dd d8 8f 3e f3 4e 8a 3e 36 27 00 3f
       0.042607747 0.2809514 0.27013358 0.5005983
000110 8c 4e 4d 3d 97 b4 33 3e 5b 44 88 3d fc a9 93 3c
       0.050123736 0.17549358 0.06653663 0.01802539
000120 b2 db f9 3d 8f ba 6c be 58 28 2b bf 40 29 c1 bd
       0.12200107 -0.23118041 -0.66858435 -0.09431696
000130 42 83 06 bf a9 ea 52 be c1 7e 6b be 4c 01 54 be
       -0.52544034 -0.20597328 -0.22997572 -0.2070362
000140 66 42 97 be 0f ab 2c be 48 02 96 3e 42 ec 8b 3d
       -0.29542845 -0.16862129 0.29298615 0.06832172
000150 fd 3d 96 3d 07 79 a3 3e 22 47 2d be 64 dd d9 3d
       0.07336042 0.31928274 -0.16921666 0.1063793
000160 10 84 6d 3e f5 68 fb be d6 51 44 3e df 72 88 3e
       0.23194909 -0.49103513 0.19171843 0.2665014
000170 24 48 5f 3e e2 10 75 3e 98 d4 a8 3d c9 b7 09 3f
       0.21804863 0.23932222 0.08243674 0.5379606
000180 8d c0 a2 3d c6 2f 68 bd 88 3c 07 3e 21 12 a7 bd
       0.079468824 -0.056686185 0.13206685 -0.08157755
000190 43 b2 d9 be b8 e3 02 be f4 d1 6e bd 1f f0 34 be
       -0.42518815 -0.1278218 -0.058305696 -0.17669724
0001a0 06 85 1b bf 24 38 2e 3e c8 72 89 be e3 af 26 bf
       -0.6074985 0.17013603 -0.26845384 -0.6511213
0001b0 62 af 2e 3e 84 38 f4 3d 7a 42 9e 3b 0b b0 7f be
       0.1705909 0.11924842 0.004829702 -0.24969499
0001c0 4a d2 9c 3e bc 54 91 3d 5e 48 0d 3e 99 ae 2f 3f
       0.30629188 0.0709624 0.13797137 0.6862579
0001d0 18 ba ae bd 2b b8 fb bd ad a1 39 3e 7d da 86 be
       -0.08531588 -0.122909866 0.1812808 -0.26338568
0001e0 8b 3b a2 3e 0d ce c1 bd 98 45 7d be f4 8b 64 3e
       0.31686053 -0.09463129 -0.24733579 0.22319013
0001f0 88 40 4a 3e 20 69 41 3e e1 df b1 bd d4 c7 80 bd
       0.19751179 0.18887758 -0.0868528 -0.06288114
000200 b4 5d 6b bc fe b9 e8 3d 11 91 08 3f b4 3b 72 bd
       -0.014365602 0.113636 0.53346354 -0.05913897
000210 c8 11 5d 3d 4a 7a 1c bf cd ea 0f bf 98 c4 8d bd
       0.053972036 -0.611241 -0.5621765 -0.06922263
000220 7b a8 36 bc 4a 2f d7 3e ba 7e 34 be 65 0a c5 3d
       -0.011148567 0.42028266 -0.17626467 0.09621123
000230 91 19 e1 3a cd 74 f2 3d 40 9b ef bc ad 88 23 bc
       0.0017173757 0.11838684 -0.029248834 -0.0099813165
000240 7b b9 1c 3f 0d fb aa 3e 15 ff 9d be 16 73 4d be
       0.6122052 0.33394662 -0.30858675 -0.20063433
000250 dc e2 11 3e 22 f3 3e 3f fb 6f f8 bd 50 1a 04 be
       0.14246696 0.7458974 -0.121307336 -0.12900662
000260 f1 52 b3 be 9a f2 2e be bd 16 24 3c 4d 7d 2b 3e
       -0.35024217 -0.17084733 0.010015187 0.16747017
000270 8e 9f 86 be cf 69 92 3e c2 3d db 3d f0 a1 82 3e
       -0.26293606 0.2859635 0.10705139 0.25514174
000280 e1 10 93 3d af 17 8e 3c ce 6e 5a 3e 59 5a 64 3d
       0.07180954 0.017345278 0.21331331 0.055750225
000290 2c bf 95 3e 84 b3 07 3f 22 f1 6d be bd 7e 05 bf
       0.29247415 0.53008294 -0.23236516 -0.5214651
0002a0 dc a2 89 3e a1 6b 25 be 11 f2 63 3c b7 14 31 be
       0.26882064 -0.16154338 0.013912694 -0.17293058
0002b0 22 ee 22 3d 33 49 4d 3a 68 49 f3 3e 5d 2d b1 be
       0.039777882 0.0007831037 0.47516942 -0.34604922
0002c0 ae d0 d5 3e c2 71 8d be cd 17 32 be e3 bd 9b 3e
       0.41760772 -0.27625853 -0.17391892 0.3041831
0002d0 23 5b c5 bd df 01 04 bc ab 30 de bd 60 06 07 3f
       -0.096365236 -0.008057087 -0.108491264 0.527441
0002e0 c4 51 51 3e 1c 10 d2 3d c6 1e 27 be 92 56 b7 3d
       0.20441347 0.10256979 -0.16320333 0.08952059
0002f0 a0 23 06 bf ee bf 09 bf c6 27 aa 3d 3e 27 89 be
       -0.5239811 -0.53808486 0.083083674 -0.26787752
000300 3d 32 a9 be 76 b4 c3 3e c7 44 7c bd 5a fa c8 bd
       -0.3304614 0.38223618 -0.06158903 -0.09813376
000310 d9 18 e9 ba 00 4e d9 3d c4 d8 f5 bd 61 67 eb 3d
       -0.0017783894 0.106105804 -0.120042354 0.11494327
000320 b5 53 90 bd a8 8d ff 3d 53 80 61 be 66 5a 8e 3d
       -0.07047216 0.12478191 -0.22021608 0.06950836
000330 e1 5b 0f 3d dc 00 25 bc 82 eb 9a 3e d2 42 39 be
       0.034999732 -0.010071006 0.30257803 -0.18091896
000340 00 27 81 3e 4e cc 23 3d c2 56 36 bc 44 e0 c4 bd
       0.25225067 0.039989762 -0.011129083 -0.09613088
000350 b1 e2 6e 3e d2 33 a7 bd 16 ad 26 bc fc d6 76 3d
       0.23328663 -0.08164181 -0.010173103 0.06026362
000360 4b 03 81 3e 63 c5 c6 3e d7 81 1a be d5 1d 25 be
       0.25197825 0.3882247 -0.15088592 -0.16124661
000370 2c 8a 07 3c b8 98 f1 b7 28 fa 63 3e b9 71 b5 bc
       0.008272689 -2.8800554e-05 0.22263396 -0.022148954
000380 3b 03 33 3d 75 34 1f bd a2 04 6f 3e 57 72 be bd
       0.043704253 -0.038868386 0.23341611 -0.09299152
000390 e4 37 73 bd f8 f4 53 3e f2 03 83 bb 68 e5 fa 3d
       -0.059379473 0.20698917 -0.003998273 0.12250787
0003a0 9f bc 6b be 1d b6 3b 3e be a0 6a 3e 9e d3 9a bd
       -0.23021172 0.1833119 0.22912881 -0.07559894
0003b0 73 7a 6f be 3e 18 77 be 80 93 1a be 64 58 2f 3f
       -0.23386554 -0.24130341 -0.1509533 0.6849425
0003c0 19 67 5d 3e 83 9f 69 bd 3f 13 17 be 4b 32 3e bc
       0.2162136 -0.057036888 -0.14753436 -0.01160867
0003d0 23 6d 64 3d b8 80 96 3e 84 4a 1f 3e 6a ad 1e be
       0.055768143 0.2939508 0.15555769 -0.1549584
0003e0 5c a0 92 3d 2f b9 b7 3d 35 08 3a be 66 50 f2 bd
       0.071594924 0.08970868 -0.18167193 -0.11831741
0003f0 5b 2c 5c bd 49 8a 59 be 1e 5f 51 3e 9d 1c a0 3e
       -0.05375324 -0.21244158 0.2044644 0.3127183

mlp.8.bias f4 [14]
000000 f0 8a 91 3d aa 1e c1 be ed 4a ee bd c2 07 21 bd
       0.07106578 -0.37718707 -0.11635385 -0.03931404
000010 03 d0 05 3d a9 8d 13 3d 75 e6 9d be 99 5d d3 bd
       0.03266908 0.03602377 -0.30839887 -0.10320587
000020 41 76 24 be 8d 60 e1 be 70 b9 3e be ea 71 97 be
       -0.16060735 -0.44018975 -0.18625426 -0.29579097
000030 ce 65 fc bd 6e 92 35 bf
       -0.12324105 -0.7092656
